net.model (torch, 396191 bytes, 4 tensors)

weight f4 [32, 3072]
000000 a9 13 65 3c 67 67 76 3c e8 fc 87 bb a2 a2 88 3c
       0.013981738 0.0150393015 -0.004150022 0.016679112
000010 2d b0 75 bb 43 52 7d 3b 1c 38 0c bc cc 3e 33 3c
       -0.0037489042 0.0038653768 -0.008558299 0.010940265
000020 aa 0a 85 3c de 23 51 bc a2 c6 85 3c eb 65 85 3b
       0.016240437 -0.012764899 0.016330067 0.0040709875
000030 9f 1d 65 3c 2d 3e 44 3b 4d 2b 16 3c d7 cd 03 bb
       0.013984113 0.0029944286 0.009165597 -0.0020111704
000040 6e d6 6c 3c f6 af 54 3b 46 1a 00 bc c3 4c ab 3b
       0.014455421 0.0032453514 -0.007818764 0.0052276566
000050 6a d6 01 bc 17 07 e6 ba 3d 07 e1 bb 46 df 4b 3c
       -0.007924655 -0.001754972 -0.006867318 0.012443369
000060 a1 c1 61 bc 3e eb 00 bc 23 4c 99 bb c3 9a 2a bc
       -0.013779075 -0.007868586 -0.0046782657 -0.010412875
000070 3d e2 10 3b c0 d5 8d bc d9 49 88 3c 8f 3e 77 bc
       0.0022107505 -0.017313838 0.016636776 -0.015090599
000080 6a e9 69 3c 8f 53 4a 3b ee 9f c0 bb 48 07 37 3c
       0.014276842 0.0030872559 -0.00587844 0.01117117
000090 d8 9f 42 3b f8 9c 71 3c 9b 02 11 3b fb 80 ad bb
       0.0029697325 0.014746897 0.0022126797 -0.0052949167
0000a0 61 0b ac 3b b8 56 8e bb c8 05 08 3c 14 22 8a 3c
       0.00525038 -0.004343834 0.00830216 0.016861953
0000b0 45 2a 37 3c 99 bd e9 bb b7 ab 37 3c 8f 56 83 3b
       0.011179511 -0.0071331975 0.011210374 0.0040081213
0000c0 7b 71 21 3c 44 80 28 bc ff 0c 8c bc 03 a0 ca bb
       0.009853716 -0.010284487 -0.01709604 -0.0061836257
0000d0 c6 1a 59 bc 2a 08 7b 3c 6b ec ba 3b cb f4 02 3c
       -0.013251012 0.015321771 0.0057044527 0.0079929335
0000e0 9e 80 cb 3b 3a ba 96 38 e8 2a 6d 3c 1c 0f 4b bc
       0.0062104007 7.187245e-05 0.014475562 -0.012393739
0000f0 41 ae d0 3a 29 d6 41 bc 6e d6 c1 3b 15 d3 c1 bb
       0.0015921072 -0.011830845 0.0059154546 -0.0059150555
000100 01 73 c9 3b be 3c 66 bb 40 37 77 3c be 4a 2b bc
       0.0061477427 -0.003513142 0.015088856 -0.010454832
000110 f9 44 2c bc 5c 7b 2d bc 93 23 87 3c 41 a1 d3 3b
       -0.010514491 -0.010588493 0.016496455 0.006458432
000120 f6 7b 91 3c e3 f9 6b bc da 5c 8d bc 53 72 5c bc
       0.017759304 -0.014402839 -0.01725619 -0.013454991
000130 a1 aa 3c bc 8b a8 03 3c 81 2d ef 3b 8e f4 80 3c
       -0.0115152905 0.008035789 0.0072991257 0.015741613
000140 be 85 0f bc 51 fb 3e bc 90 64 27 3c f4 3b db bb
       -0.008759914 -0.011656598 0.010216847 -0.0066904966
000150 19 37 3c 3c d0 70 75 bb 4b c2 31 3c a1 43 5b bc
       0.011487746 -0.0037451275 0.010849546 -0.013382823
000160 b5 bd 09 bc 72 55 c4 3b c9 ef 87 3b cc 1e 8a bb
       -0.008407046 0.005991631 0.0041484577 -0.004215097
000170 3e 72 37 3c b2 2f 51 3c 89 a7 4f bc 6f 62 17 bc
       0.011196671 0.012767719 -0.012674221 -0.009239777
000180 b1 8b 8d 3c 7a e2 b8 bb 0a b4 c8 bb 1a 22 8c bc
       0.017278524 -0.0056422325 -0.006124978 -0.017106105
000190 be 11 25 bc 84 16 99 3b 80 c6 0a bb 2f 01 4f bc
       -0.010075031 0.0046718735 -0.0021175444 -0.01263456
0001a0 98 08 53 3a 89 07 42 bc 38 5e 71 bc 28 4f 18 bc
       0.0008050292 -0.011842617 -0.014731936 -0.009296216
0001b0 78 e1 78 bc 7b f6 30 bc 2a cb 99 3c 8e ff 82 3b
       -0.015190475 -0.010800953 0.018773634 0.0039977496
0001c0 b0 29 c5 3b 79 e7 85 bc 16 20 3c bc 6d 50 b9 bb
       0.0060169324 -0.016345726 -0.011482259 -0.0056553395
0001d0 d3 4f 56 3b 38 c9 7d bc 74 6e f0 bb 2f e7 27 bc
       0.0032701388 -0.015489869 -0.007337386 -0.01024799
0001e0 58 d5 3d 3a 2f ee ca bb b1 95 6e ba 02 07 43 bc
       0.00072415685 -0.0061929445 -0.0009101285 -0.011903526
0001f0 1d 7d 43 bc 02 c0 22 bc 27 3f b8 bb f5 4f 61 bc
       -0.011931685 -0.009933474 -0.0056227627 -0.013751973
000200 57 a7 82 3c ca d4 42 bb d9 68 82 3c 5b 10 c7 3b
       0.015948934 -0.0029728883 0.015919136 0.006074948
000210 32 f2 73 bc 60 7b 50 3c 32 de 99 bb 16 c2 d5 bb
       -0.014889287 0.012724727 -0.004695677 -0.006523381
000220 39 be 6e bc b6 76 8e bc 2f 10 c0 3b 0a 58 4f bb
       -0.01457172 -0.01739059 0.0058613042 -0.0031638169
000230 75 e9 fe 3b ed 2d 67 bc 62 c4 65 3c 07 b0 50 bc
       0.007779295 -0.014110071 0.014023872 -0.012737281
000240 ba 09 28 bb c4 e9 8f 3b 3e 9e 21 3c dd f6 75 3c
       -0.0025640563 0.0043918807 0.009864388 0.01501247
000250 b5 e6 8a 3c 90 bb 62 bc 7d 94 a3 3b e5 74 ec bb
       0.016955713 -0.013838664 0.0049920664 -0.0072160834
000260 c9 3e b0 ba ce 5f 54 bc 56 82 89 3c d1 46 53 bc
       -0.0013446446 -0.012962295 0.016785782 -0.012895302
000270 40 3a 27 3c 2e 65 e6 3b 18 88 d5 3b b7 9a 14 bc
       0.010206759 0.0070311045 0.006516468 -0.00907009
000280 8c b6 8c 3c d8 ef 95 3b 7b 1a 36 3b 59 bc 7d bc
       0.017176889 0.0045757107 0.002778678 -0.0154868
000290 7b ec 02 3c 17 c1 1c bb 3e a8 02 bc bc 15 82 3c
       0.007990952 -0.0023918801 -0.007974682 0.015879504
0002a0 73 0a 92 3b 0a 75 1c bc d8 61 0c bc 4e b7 8d b9
       0.004456812 -0.009549389 -0.00856825 -0.00027030188
0002b0 fd dc 2f 3c a4 7a 81 bb a9 c7 1f bc 59 be b8 bb
       0.01073384 -0.0039513875 -0.009752193 -0.0056379256
0002c0 4f 72 52 bc 78 48 ec 3b fc 97 70 3c 99 07 86 bc
       -0.012844636 0.0072107874 0.014684673 -0.016361045
0002d0 af 18 9c 3b e6 cc 20 3c d8 a6 7e 3b a8 f7 ba bb
       0.0047636847 0.009814477 0.003885677 -0.0057057925
0002e0 bc b4 25 3c 23 6e 25 3c ec 74 ec 3b eb eb 2c bb
       0.010113891 0.010097059 0.0072160866 -0.0026385735
0002f0 0f af 85 bb ca 5e 2a 3b b5 72 24 bb 57 76 94 bb
       -0.0040797065 0.002599644 -0.0025092785 -0.004530709
000300 4b f8 4b 3c eb 87 84 3c b4 27 b0 ba b5 f3 74 bb
       0.012449334 0.016178092 -0.0013439567 -0.0037376706
000310 f0 c4 0b 3a 7f 2d 56 ba 75 b1 97 3b ee e3 b1 3b
       0.0005331775 -0.00081702316 0.004629309 0.0054287827
000320 26 3f 83 bc c8 5d cf bb df 92 80 3c 2d 3c f9 3b
       -0.016021322 -0.0063283183 0.015695034 0.0076060505
000330 bb c0 c1 b9 90 65 28 bc 30 2f 2c bc d0 11 7f bc
       -0.00036955424 -0.010278121 -0.010509297 -0.015568212
000340 c2 ed aa bb 7d e3 df 3b 05 ed 46 3c e1 8d 11 3c
       -0.005216331 0.0068325386 0.012141471 0.008883924
000350 e7 a9 7d bc bb 7a 2b bc 89 47 14 bb 8b ce 94 3c
       -0.015482402 -0.010466273 -0.0022625646 0.018164894
000360 1e 63 56 3b 12 71 88 bb d9 0b ff 3b 1e ca d1 bb
       0.0032712887 -0.0041638697 0.007783395 -0.006402268
000370 e6 46 33 bc 97 f8 63 3c 66 f8 f3 bb 60 e2 2e bb
       -0.0109421965 0.013914249 -0.007445383 -0.0026685223
000380 09 c2 89 bc c9 e7 52 3c d7 ad 66 3c b7 88 df 3b
       -0.016816156 0.012872645 0.014079533 0.0068217176
000390 64 9b 49 bc d4 bf 8e bc b4 57 68 bc 8f b5 63 3c
       -0.012305114 -0.017425455 -0.014181066 0.013898267
0003a0 70 79 15 3c 81 b3 80 3c e7 72 25 3c ed 20 ac 3b
       0.009123191 0.015710594 0.010098196 0.0052529485
0003b0 12 c7 ab 39 f5 e2 57 bc af ff 73 bc ae 87 85 bc
       0.0003276398 -0.013176669 -0.014892503 -0.016300049
0003c0 d5 16 04 3c 28 37 04 bc 15 2d 38 bb 4a b3 1d bc
       0.008062084 -0.008069791 -0.0028103043 -0.009625265
0003d0 c8 4f 32 bb 09 42 48 bc d8 c5 37 bc b7 38 d5 3b
       -0.0027208198 -0.012222775 -0.011216603 0.006507005
0003e0 73 c6 a0 bb 27 13 3e 3c 12 9c b2 bb 74 75 51 bc
       -0.0049064695 0.011601246 -0.005450734 -0.012784351
0003f0 ce ac 23 bb 77 e5 04 bc 62 cf a0 bb 90 12 86 bc
       -0.0024974826 -0.008111349 -0.0049075345 -0.016366273

bias f4 [32]
000000 fe c9 44 3c 28 62 61 bb 7c 45 b7 bb b1 75 ac bb
       0.012011049 -0.003439078 -0.005593 -0.0052630533
000010 37 d3 36 3a 2b 02 89 3c 94 43 8c 3c 83 9a 2c bc
       0.00069742225 0.016724667 0.017122068 -0.010534885
000020 1a ef 88 bc 02 85 e9 bb 48 4c e8 bb 34 0b e2 bb
       -0.016715575 -0.0071264515 -0.0070891716 -0.006898308
000030 ad 80 8e 3c a5 f1 85 bc d0 59 87 3c 6a e8 0a bc
       0.017395342 -0.016350577 0.016522318 -0.008478263
000040 83 f4 a6 3c d1 9e 6c 3c 74 6b 95 bb 46 12 7c 3c
       0.020380264 0.014442162 -0.0045599286 0.015385216
000050 8c e0 3f 3a 6d d3 88 3c 22 ef 65 3c 00 36 47 bc
       0.0007319532 0.016702378 0.0140340645 -0.012158871
000060 90 f1 8c 3c 6a 49 6c bc 4f 97 88 3c b9 d6 54 3c
       0.01720503 -0.0144218 0.016673712 0.012990647
000070 6f 6e 94 3c f3 3d a1 3a 0e 54 18 bc e8 ac 03 3b
       0.018119065 0.0012301788 -0.009297384 0.0020092074

weight f4 [2, 32]
000000 81 1a e4 bd 03 de 0c 3d ec 08 13 be 89 bd b0 3d
       -0.11137868 0.034391414 -0.14358872 0.08629901
000010 af f3 1d bd 60 6a 14 3e 2f 2f 01 be b3 f4 0b be
       -0.038562473 0.14493704 -0.12615655 -0.13667564
000020 4a 19 d8 3d 44 17 30 be 05 72 ca 3d cb 73 24 3e
       0.105516985 -0.17196375 0.09885029 0.16059797
000030 5d 48 0a be b1 ec 25 3d 0f cd ea 3d 64 e9 f2 3d
       -0.13504167 0.04050893 0.11464893 0.11860922
000040 f2 d6 5b bd 18 c2 fa 3d 3f ea 31 3e cb 1e 03 be
       -0.053671785 0.12244052 0.17374514 -0.12804715
000050 ac a0 04 3d 7e 44 0d 3e f9 13 dd bd 0c 40 29 3d
       0.03237979 0.13795659 -0.10794825 0.041320845
000060 0d 2e 77 3d 22 90 ad bc 6f 34 ec bd 8a 15 02 3d
       0.06034665 -0.021186892 -0.115334384 0.031758823
000070 b8 46 f5 bd dd 02 b5 bd 49 cf 32 3d 9f 4c 05 be
       -0.11976379 -0.08838437 0.043654714 -0.1301751
000080 e9 21 06 3e 85 7d b1 bd ac eb 20 be ec 9d 24 be
       0.13098873 -0.08666519 -0.15714902 -0.16075867
000090 ed 75 31 bd 54 fb 2f 3e 40 b7 17 be c7 6b 1f 3e
       -0.043325353 0.17185718 -0.14815998 0.15568458
0000a0 b8 8f 91 3c 4b 0a 02 3e 54 81 4d 3d d8 0a 03 be
       0.017768726 0.12699239 0.050172165 -0.12797105
0000b0 00 97 2f 3e e7 be 63 3d 2f 61 e0 bd 8c f2 ce 3c
       0.17147446 0.05560198 -0.10956036 0.02526214
0000c0 74 7c 39 3e ab 53 1b be 96 4d 09 be 57 f1 40 3d
       0.18113881 -0.15168636 -0.13408503 0.04710516
0000d0 24 2f 63 3c d9 38 53 3d f1 dc 18 be 73 c2 21 be
       0.01386622 0.051567886 -0.14928032 -0.15796833
0000e0 08 8e 8a bd 6b 31 e9 bd 09 8b 0a 3e e2 b5 c6 bd
       -0.067653716 -0.11386379 0.135296 -0.0970266
0000f0 c2 51 d2 bd 29 d6 66 bd a3 7e b6 3d 67 ea 60 3d
       -0.102695 -0.056356583 0.08910873 0.054911043

bias f4 [2]
000000 67 be 2a 3d 9e 47 db bd
       0.041685488 -0.10707019
