net.model (torch, 396191 bytes, 4 tensors)

weight f4 [32, 3072]
0.014548714 0.015719028 -0.003699839 0.016423868 -0.0038335295 0.003908391 -0.008643411 0.011063515
0.016490381 -0.012018792 0.017233714 0.0051064105 0.014967406 0.0038660273 0.00956868 -0.001539559
0.015029734 0.0038379452 -0.007153365 0.00619791 -0.0072502657 -0.0010301309 -0.0063134907 0.012864449
-0.013300997 -0.006814868 -0.0037063558 -0.009314738 0.0034020236 -0.01609156 0.017883707 -0.014030964
0.015369317 0.00398757 -0.005471025 0.01086495 0.002954794 0.01486442 0.0022002282 -0.004855615
0.0060360185 -0.0031738563 0.009358788 0.01794979 0.012136692 -0.0061219055 0.0118528325 0.0044487845
0.010407052 -0.009598149 -0.016026707 -0.0049726353 -0.012370694 0.01599393 0.005939468 0.00817934
0.006546822 0.00054199994 0.015009937 -0.011517324 0.0025738853 -0.010731959 0.0069877403 -0.0048353313
0.007799299 -0.0023282683 0.015814867 -0.0100698825 -0.010312875 -0.010828587 0.016216386 0.006936173
0.018086862 -0.013984843 -0.016936865 -0.012964267 -0.0113727525 0.008115235 0.007548035 0.015797447
-0.008885666 -0.011590268 0.0107876565 -0.0061445846 0.011821833 -0.0034668518 0.010759924 -0.013208529
-0.007836667 0.0064611845 0.0046192855 -0.0032451681 0.012316717 0.014033276 -0.011591333 -0.007907891
0.019334547 -0.00408723 -0.0051846597 -0.01636168 -0.009933357 0.0039166547 -0.0027500151 -0.012524316
0.0005541112 -0.011981673 -0.01504841 -0.009264697 -0.015387587 -0.011149003 0.018713726 0.003700778
0.0054958537 -0.017030451 -0.012121319 -0.0060996083 0.0030374913 -0.015743867 -0.007754355 -0.010549197
0.0010187674 -0.0057577738 -0.0001313693 -0.010863816 -0.0106324805 -0.008388789 -0.004149437 -0.012234896
0.018420914 -0.0008773746 0.0174571 0.0073682936 -0.014207539 0.01244213 -0.005294213 -0.007093722
-0.0150509 -0.017490895 0.005901471 -0.0031731415 0.0077271215 -0.014326007 0.013635052 -0.013549897
-0.0032428452 0.0036572274 0.009063388 0.014150965 0.016267115 -0.014112843 0.0045570503 -0.0074469657
-0.0010543193 -0.012330822 0.01755586 -0.01194776 0.011539814 0.008486901 0.008049022 -0.0069708405
0.019282913 0.006319715 0.0040860707 -0.014484231 0.008559838 -0.0026312373 -0.008623474 0.0151221715
0.003940839 -0.009701759 -0.008872765 -0.0007340458 0.010736544 -0.0036051418 -0.009977366 -0.006194607
-0.01352724 0.0067649987 0.014251902 -0.016779697 0.004237359 0.009518991 0.0040196227 -0.0052399733
0.010950435 0.011240943 0.008135172 -0.0018302737 -0.003167974 0.0033774294 -0.0013823538 -0.0024886804
0.014543605 0.017990591 -4.7905196e-05 -0.0028785295 0.0008363367 -0.0010582369 0.004104383 0.0049634217
-0.016495755 -0.0067311726 0.015072371 0.0071950112 -0.0005472756 -0.010013692 -0.010448934 -0.015922455
-0.0060308813 0.006529535 0.01190479 0.008376069 -0.016087398 -0.010932941 -0.002165212 0.018587485
0.004109426 -0.0031521549 0.008385318 -0.005845773 -0.010280119 0.014337438 -0.0064832037 -0.00067323324
-0.0143621275 0.014882795 0.015211392 0.0076506548 -0.0115575725 -0.01680361 -0.013981816 0.014202306
0.009204564 0.015924744 0.010154694 0.0053913463 4.2471132e-05 -0.013264645 -0.014502627 -0.01608331
0.0074922456 -0.008290731 -0.0021963904 -0.009158642 -0.0027025184 -0.0122584 -0.011107501 0.006789122
-0.0043210336 0.0121665085 -0.004955035 -0.012038878 -0.0014705631 -0.0077379355 -0.004157426 -0.014411234
00000000: bb5d 6e3c 31c5 803c 0079 72bb 598b 863c
00000010: f43b 7bbb f611 803b 189d 0dbc bf43 353c
00000020: d616 873c 78ea 44bc b82d 8d3c ad53 a73b
00000030: da39 753c 2d5d 7d3b f4c5 1c3c 07cb c9ba
00000040: 463f 763c 0986 7b3b c666 eabb d617 cb3b
00000050: a393 edbb 7505 87ba 66e1 cebb 69c5 523c
00000060: 6dec 59bc 424f dfbb 55e6 72bb d89c 18bc
00000070: 7cf4 5e3b 72d2 83bc da80 923c 21e2 65bc
00000080: 96cf 7b3c 29aa 823b 4946 b3bb e702 323c
00000090: 38a5 413b e589 733c b431 103b da1b 9fbb
000000a0: cbc9 c53b 7900 50bb 9a55 193c 700b 933c
000000b0: fad8 463c 449a c8bb 6232 423c 1cc7 913b
000000c0: 5782 2a3c 8e41 1dbc 714a 83bc 7df1 a2bb
000000d0: 74ae 4abc b405 833c de9f c23b a302 063c
000000e0: b986 d63b 0015 0e3a 3dec 753c 28b3 3cbc
000000f0: a1ae 283b 19d5 2fbc 6af9 e43b b371 9ebb
00000100: 4391 ff3b dc95 18bb 2e8e 813c 26fc 24bc
00000110: 55f7 28bc 636a 31bc 3ad8 843c d648 e33b
00000120: e62a 943c af20 65bc 2ebf 8abc 1468 54bc
00000130: c854 3abc c3f5 043c 8255 f73b a669 813c
00000140: 2f95 11bc 1ce5 3dbc b6be 303c 8358 c9bb
00000150: 5db0 413c 1f34 63bb 644a 303c 9668 58bc
00000160: 5d65 00bc 58b8 d33b 605d 973b e3ac 54bb
00000170: 0ecc 493c d3eb 653c 93e9 3dbc 1990 01bc
00000180: 7c63 9e3c 2cee 85bb 14e4 a9bb ee08 86bc
00000190: 85bf 22bc 4857 803b 9939 34bb ca32 4dbc
000001a0: c641 113a c74e 44bc 9b8d 76bc f5ca 17bc
000001b0: 381c 7cbc 4faa 36bc 874d 993c c088 723b
000001c0: 9016 b43b 7283 8bbc 7f98 46bc 39df c7bb
000001d0: a610 473b 48f9 80bc 3f18 febb 8ad6 2cbc
000001e0: 2988 853a b5ab bcbb 2ec0 09b9 26fe 31bc
000001f0: db33 2ebc 2271 09bc 00f8 87bb e074 48bc
00000200: 75e7 963c 9dff 65ba 3102 8f3c ba71 f13b
00000210: bdc6 68bc 13da 4b3c 147b adbb 7472 e8bb
00000220: 0d98 76bc 1149 8fbc 2061 c13b 7bf4 4fbb
00000230: cb33 fd3b a1b7 6abc 8e65 5f3c 6300 5ebc
00000240: ea85 54bb 18ae 6f3b 9b7e 143c 73d9 673c
00000250: 9d42 853c 8e39 67bc 4f53 953b ad05 f4bb
00000260: 1631 8aba 3707 4abc 4fd1 8f3c 8ac0 43bc
00000270: 7d11 3d3c a50c 0b3c 0ce0 033c a66b e4bb
00000280: 33f7 9d3c 9d15 cf3b 72e4 853b 454f 6dbc
00000290: 903e 0c3c d670 2cbb 7949 0dbc fcc2 773c
000002a0: 2722 813b 20f4 1ebc 135f 11bc fb6c 40ba
000002b0: 54e8 2f3c 3e44 6cbb 1b78 23bc 21fc cabb
000002c0: 5ba1 5dbc ecac dd3b cf80 693c 9375 89bc
000002d0: 8bd9 8a3b 8bf5 1b3c 0ab7 833b 15b4 abbb
000002e0: 7469 333c ef2b 383c 6249 053c cbe5 efba
000002f0: c99d 4fbb dd57 5d3b 1930 b5ba 2119 23bb
00000300: 4d48 6e3c 0161 933c d0ed 48b8 b6a5 3cbb
00000310: 9b3d 5b3a 8ab4 8aba 0f7e 863b 33a4 a23b
00000320: 1b22 87bc 2b91 dcbb 1bf2 763c 21c4 eb3b
00000330: 0b77 0fba 7810 24bc 0132 2bbc cf6f 82bc
00000340: b39e c5bb b6f5 d53b 4f0c 433c c83b 093c
00000350: b8c9 83bc 1420 33bc 3be6 0dbb c844 983c
00000360: 5da8 863b 6294 4ebb 9362 093c e68d bfbb
00000370: f26d 28bc 93e7 6a3c 0e71 d4bb eb7b 30ba
00000380: 214f 6bbc f7d6 733c 3439 793c 58b2 fa3b
00000390: f95b 3dbc b9a7 89bc fd13 65bc cab0 683c
000003a0: bdce 163c 9c74 823c e05f 263c e4a9 b03b
000003b0: 0823 3238 f453 59bc 6d9c 6dbc 25c1 83bc
000003c0: 8381 f53b d9d5 07bc 51f1 0fbb 210e 16bc
000003d0: bc1c 31bb 75d7 48bc 3cfc 35bc 4877 de3b
000003e0: 7597 8dbb 0956 473c d95d a2bb b73e 45bc
000003f0: e9bf c0ba 828e fdbb 043b 88bb 191d 6cbc

bias f4 [32]
0.016286895 -0.0038592152 -0.0055955104 -0.0062846458 0.000664972 0.017139146 0.016945282 -0.0058382717
-0.017513525 -0.0033514665 -0.0073735365 -0.008441826 0.023218133 -0.016107835 0.014917178 -0.008794319
0.023217505 0.013355213 -0.005830226 0.017544674 0.000704819 0.015814833 0.013487904 -0.012802078
0.016422907 -0.015255272 0.018768858 0.012188498 0.0182512 0.0014955907 -0.009083229 0.004434208
00000000: 186c 853c e3ea 7cbb 8b5a b7bb 6eef cdbb
00000010: 8451 2e3a 6567 8c3c d5d0 8a3c f94e bfbb
00000020: 8678 8fbc 47a4 5bbb b59d f1bb 964f 0abc
00000030: f433 be3c 94f4 83bc 2e67 743c 0c16 10bc
00000040: a332 be3c d3cf 5a3c 7b0b bfbb d9b9 8f3c
00000050: 9ac3 383a 1c8e 813c 5ffc 5c3c cfbf 51bc
00000060: 5589 863c 40f1 79bc 26c1 993c 44b2 473c
00000070: 8a83 953c b207 c43a d3d1 14bc d54c 913b

weight f4 [2, 32]
-0.12061041 0.034672864 -0.13731249 0.08598435 -0.041845396 0.14203009 -0.12571673 -0.1517965
0.10700588 -0.18389176 0.10198336 0.16047545 -0.14841707 0.03763044 0.11590513 0.11822854
-0.06649087 0.12050498 0.1750158 -0.13593484 0.03190551 0.1425614 -0.10784423 0.041524205
0.05762996 -0.018880447 -0.120914966 0.035400152 -0.116857685 -0.09000778 0.043440796 -0.14210865
0.14022046 -0.086946696 -0.16342525 -0.1604441 -0.040042426 0.17476411 -0.1485998 0.17080544
0.016279895 0.13892041 0.04703906 -0.12784854 0.18484987 0.058480475 -0.11081656 0.025642814
0.19395792 -0.14975086 -0.13535571 0.05499284 0.014340508 0.046963077 -0.14938445 -0.1581716
-0.06493699 -0.116170265 0.14087652 -0.10066793 -0.1056011 -0.05473318 0.08932261 0.066844545
00000000: 9702 f7bd 2205 0e3d a59b 0cbe 9018 b03d
00000010: 1466 2bbd 5670 113e e3bb 00be 8b70 1bbe
00000020: e625 db3d 1f4e 3cbe a7dc d03d ad53 243e
00000030: a5fa 17be 6022 1a3d ab5f ed3d ce21 f23d
00000040: 5e2c 88bd 51cb f63d 5837 333e 8132 0bbe
00000050: 5aaf 023d 9efb 113e 70dd dcbd 4915 2a3d
00000060: 650d 6c3d 2bab 9abc 44a2 f7bd c0ff 103d
00000070: 1553 efbd 0056 b8bd faee 313d ee84 11be
00000080: f495 0f3e 1c11 b2bd f358 27be 754b 24be
00000090: 8703 24bd 5df5 323e 8c2a 18be 9fe7 2e3e
000000a0: 6a5d 853c 2741 0e3e 08ac 403d baea 02be
000000b0: 4949 3d3e 3989 6f3d cbf3 e2bd e110 d23c
000000c0: e89c 463e 4a58 19be b09a 0abe 2c40 613d
000000d0: 73f4 6a3c 5b5c 403d 3df8 18be bcf7 21be
000000e0: affd 84bd adea edbd ef41 103e fd2a cebd
000000f0: 6445 d8bd e62f 60bd c6ee b63d cbe5 883d

bias f4 [2]
0.023049936 -0.08843468
00000000: 38d3 bc3c 3e1d b5bd
