net.model (torch, 396191 bytes, 4 tensors)

weight f4 [32, 3072]
000000 43 85 67 3c 18 14 79 3c f4 00 88 bb 53 ee 81 3c
       0.014130893 0.015202545 -0.0041505042 0.015860712
000010 fb d5 8c bb 64 93 72 3b a8 6c 11 bc 08 39 32 3c
       -0.0042979694 0.0037014121 -0.008876003 0.010877855
000020 eb 2d 82 3c 43 d8 44 bc 24 5a 8e 3c 4c fa a2 3b
       0.015891036 -0.012014451 0.017376967 0.0049736854
000030 36 e1 75 3c 1c 2e 83 3b de 94 19 3c 9d 21 d0 ba
       0.015007308 0.0040032994 0.009373872 -0.0015879158
000040 b5 3f 7a 3c 9e 99 78 3b 46 2b ed bb 6d c4 e1 3b
       0.015273978 0.003793336 -0.0072378246 0.006889871
000050 bd c6 cd bb c2 b7 6a b9 d2 59 b5 bb 68 d5 59 3c
       -0.006279795 -0.00022384434 -0.005534389 0.013295509
000060 e8 91 57 bc 67 2f de bb bd e7 7a bb bf b7 19 bc
       -0.013157345 -0.006780553 -0.00382851 -0.009382187
000070 4c f7 5b 3b 57 33 85 bc 2f 68 94 3c 65 d6 65 bc
       0.0033564148 -0.016259832 0.018116085 -0.014028166
000080 6c a0 74 3c bb 95 65 3b 8f 2f cd bb 33 53 23 3c
       0.014930826 0.0035031873 -0.006261773 0.009968567
000090 02 16 12 3b 28 85 6b 3c cf cc fb 3a e8 7b 9f bb
       0.002229095 0.014375009 0.0019210818 -0.0048670657
0000a0 3d 2b b9 3b 97 da 5a bb c4 83 15 3c 01 d4 8b 3c
       0.0056509064 -0.003339445 0.009125654 0.017068865
0000b0 c1 8c 3b 3c 21 70 db bb c4 31 37 3c 10 e6 79 3b
       0.011447133 -0.0066967164 0.011181299 0.0038131513
0000c0 22 3f 23 3c a5 a4 20 bc 9f 4e 83 bc 42 35 95 bb
       0.0099637825 -0.009804879 -0.0160287 -0.004553468
0000d0 30 24 40 bc 12 01 8a 3c 49 60 dc 3b 4e 39 10 3c
       -0.011727378 0.016846213 0.0067253453 0.008802725
0000e0 2f e7 de 3b 9d 68 04 3a e4 9f 6f 3c 95 eb 3f bc
       0.0068024616 0.0005050989 0.014625523 -0.011713882
0000f0 b5 fd 24 3b 4b dd 2f bc 0b 52 ee 3b fb 91 92 bb
       0.0025175635 -0.010733913 0.007272964 -0.0044729686
000100 84 c1 02 3c 80 92 22 bb 86 66 78 3c f6 84 31 bc
       0.007980708 -0.002480656 0.015161162 -0.010834923
000110 ff 08 39 bc 09 10 40 bc 75 a2 82 3c 7e c3 e6 3b
       -0.011293649 -0.011722573 0.015946606 0.0070423475
000120 3f 76 92 3c 94 d2 6c bc 0f 67 92 bc 1c a8 6c bc
       0.01787865 -0.014454503 -0.017871408 -0.014444377
000130 1a c6 53 bc da 6e d7 3b bf e2 c6 3b 9a cf 6b 3c
       -0.012925649 0.006574494 0.0060695107 0.014392758
000140 a0 2e 24 bc 43 de 48 bc 0c d9 2b 3c 5a 6f c4 bb
       -0.010020882 -0.012260023 0.01048876 -0.0059947195
000150 8c ec 4b 3c 9a 5c 2a bb 2d 6f 38 3c bc ea 49 bc
       0.012446534 -0.0025995136 0.011256975 -0.012324031
000160 91 d2 f6 bb b1 49 cc 3b be ec 91 3b f2 1f 4e bb
       -0.0075324257 0.0062343706 0.0044532707 -0.0031452146
000170 0c 49 4e 3c 0e 98 6a 3c d9 35 38 bc 1b dd f5 bb
       0.012590658 0.014318479 -0.011243307 -0.0075031645
000180 61 dd a8 3c 3a 7f 51 bb d5 27 98 bb ab 42 83 bc
       0.020613374 -0.0031966702 -0.00464342 -0.016023
000190 d6 61 2b bc d4 d8 46 3b 32 53 50 bb 0c af 4d bc
       -0.010460338 0.0030341642 -0.003178787 -0.012553941
0001a0 1a cb ea 36 71 e5 50 bc 96 31 87 bc 73 4d 34 bc
       6.9973876e-06 -0.012750016 -0.016503137 -0.011004793
0001b0 25 26 8c bc cf 1f 52 bc b2 f6 8d 3c 8b 2e 1a 3b
       -0.017108032 -0.012824967 0.017329548 0.0023526277
0001c0 88 2f 97 3b c1 a5 90 bc 72 02 4f bc c7 79 c6 bb
       0.0046138205 -0.017657163 -0.01263486 -0.0060569975
0001d0 09 22 83 3b 85 ec 72 bc 50 e0 ed bb fa 15 22 bc
       0.00400186 -0.014826898 -0.007259406 -0.009892935
0001e0 f0 04 98 3a fd 20 c9 bb 49 4f 7c b8 24 ee 2d bc
       0.0011598151 -0.0061379657 -6.0155322e-05 -0.010615859
0001f0 4d ec 2b bc c5 f2 01 bc c8 b7 5e bb 57 ef 40 bc
       -0.01049335 -0.007931416 -0.0033984054 -0.011775813
000200 2c 64 a5 3c d9 3d 36 3a ac 02 9a 3c ff 2d 0e 3c
       0.020189367 0.0006951965 0.018800102 0.0086779585
000210 28 15 62 bc 30 61 4a 3c d0 ef b8 bb 36 06 f6 bb
       -0.013798989 0.012352273 -0.0056438223 -0.0075080646
000220 d2 18 7e bc 30 77 92 bc bc 20 a2 3b 9d 39 96 bb
       -0.015508847 -0.017879099 0.00494775 -0.0045845048
000230 54 f9 d7 3b 5c fc 79 bc 2d d2 4e 3c 93 db 78 bc
       0.0065910015 -0.015257921 0.012623352 -0.015189069
000240 31 09 8c bb df 8d 49 3b f7 86 0b 3c b9 6a 5c 3c
       -0.0042735566 0.0030754728 0.008516065 0.013453179
000250 b4 44 85 3c 04 e6 5e bc e3 0f 98 3b 53 ae f3 bb
       0.016268112 -0.013604645 0.0046405657 -0.0074365526
000260 34 6b 8c ba bb 78 4a bc 04 18 90 3c 9d fa 3f bc
       -0.0010713101 -0.012357886 0.017589577 -0.011717466
000270 92 10 43 3c 46 4d 11 3c fd 9b 0f 3c c9 85 c7 bb
       0.011905806 0.008868521 0.008765218 -0.0060889465
000280 c5 88 a6 3c 96 c0 f4 3b 0e 9b ac 3b 72 19 5c bc
       0.020328889 0.007469247 0.0052675074 -0.013433801
000290 2e fb 14 3c 4a ab 2b bb cc 8c 11 bc 02 c5 73 3c
       0.009093089 -0.0026194626 -0.008883666 0.014878513
0002a0 8d 39 79 3b e1 8b 21 bc 72 85 1c bc 84 6b d2 ba
       0.0038028688 -0.00986001 -0.0095533 -0.0016053771
0002b0 55 02 28 3c 36 95 67 bb a9 9c 1e bc 54 bb db bb
       0.010254462 -0.003533674 -0.009680905 -0.006705681
0002c0 b7 92 6a bc 36 10 c0 3b 25 ec 59 3c f1 1e 93 bc
       -0.014317206 0.0058613075 0.01330093 -0.01795909
0002d0 7f 67 70 3b a2 34 21 3c 4a a3 98 3b 3a d5 9f bb
       0.0036682782 0.009839209 0.0046581374 -0.0048777135
0002e0 8c 23 30 3c 82 b2 37 3c a9 26 08 3c 6b 53 d6 ba
       0.010750663 0.011211993 0.008309999 -0.0016351765
0002f0 1e 74 36 bb 9b f9 5f 3b 61 51 b6 ba c4 6f f4 ba
       -0.0027840207 0.0034175876 -0.0013909751 -0.0018649031
000300 e3 5a 74 3c 03 b1 95 3c bf 4a e6 39 f3 60 1e bb
       0.014914247 0.018272882 0.0004392471 -0.0024166673
000310 fe 5b 92 3a 68 b3 b4 ba 01 04 7b 3b 35 35 a2 3b
       0.0011166332 -0.0013786377 0.0038301947 0.0049501904
000320 f7 d8 87 bc 24 28 ed bb e2 bf 67 3c 49 43 df 3b
       -0.01658295 -0.007237451 0.0141448695 0.006813441
000330 bc 94 79 ba 6c bc 24 bc 8f c4 20 bc 99 93 81 bc
       -0.00095207593 -0.010054689 -0.009812488 -0.01581745
000340 8e 6e e0 bb 21 0a b5 3b d5 67 31 3c a3 ef ea 3b
       -0.0068491166 0.005524889 0.010827978 0.00716968
000350 ed 8d 8c bc cb 80 39 bc c7 81 02 bb 0a 53 9b 3c
       -0.01715752 -0.011322211 -0.001991378 0.018960495
000360 40 27 83 3b 8f fd 5d bb 2f 52 08 3c 49 80 ba bb
       0.0040024817 -0.0033873057 0.008320375 -0.0056915623
000370 20 e9 24 bc 2a 78 67 3c bc 27 e3 bb ae c9 c6 b8
       -0.010065347 0.01412777 -0.006932227 -9.4789415e-05
000380 bd f6 63 bc d8 20 75 3c c9 8e 7d 3c f4 12 05 3c
       -0.013913807 0.014961444 0.015475937 0.008122195
000390 74 c9 3c bc ae 0d 8b bc 16 e7 63 bc 7a 78 67 3c
       -0.01152264 -0.016974296 -0.013910076 0.014127845
0003a0 40 e3 19 3c 0c bf 84 3c 02 41 26 3c f0 34 b0 3b
       0.0093925595 0.01620438 0.010147335 0.0053774044
0003b0 62 fd 1f ba a6 fb 5e bc 90 a7 66 bc 74 5c 85 bc
       -0.00061031256 -0.013609802 -0.014078036 -0.016279437
0003c0 3d aa ce 3b 6b 1f 1a bc 48 49 3d bb d0 86 25 bc
       0.006306915 -0.009406905 -0.002888279 -0.010102943
0003d0 a0 78 70 bb 11 89 5b bc 17 bf 40 bc c8 35 e6 3b
       -0.0036692992 -0.013399378 -0.011764309 0.007025454
0003e0 62 56 8d bb 5b 1b 47 3c f5 ad 9d bb bc 6f 41 bc
       -0.004313276 0.012152518 -0.004811997 -0.011806425
0003f0 de 72 cb ba e8 ab 02 bc f4 da 8e bb b5 12 63 bc
       -0.0015521904 -0.007975556 -0.0043595973 -0.013859441

bias f4 [32]
000000 5c f6 8b 3c 20 26 8c bb c0 7a ba bb 79 0d 02 bc
       0.017085247 -0.004277006 -0.0056909025 -0.007937782
000010 10 20 37 3a 1f 0f 8e 3c 28 f4 89 3c f4 d1 af bb
       0.00069856737 0.017341195 0.016840056 -0.0053656045
000020 58 0c 93 bc 23 ca bf ba dc 0c 01 bc 23 11 36 bc
       -0.017950222 -0.0014632385 -0.007876601 -0.011112484
000030 86 4c d1 3c 57 58 82 bc b1 e9 4f 3c 61 38 1f bc
       0.025549185 -0.015911264 0.012689994 -0.009718032
000040 90 dd c0 3c 9c 6d 2d 3c f4 7d 17 bc 55 10 92 3c
       0.02354315 0.010585215 -0.009246338 0.017830053
000050 76 8a 1d 3a 51 c2 77 3c ed 80 57 3c 01 7f 73 bc
       0.0006009707 0.015122012 0.013153297 -0.014861823
000060 0b 96 79 3c 1d a4 85 bc b8 78 99 3c 11 60 42 3c
       0.015233527 -0.016313607 0.018734321 0.011863724
000070 e2 c1 95 3c 18 cc db 3a bc 56 12 bc 00 2f 99 3b
       0.018280927 0.0016769199 -0.008931812 0.0046747923

weight f4 [2, 32]
000000 83 52 e6 bd d7 25 27 3d 00 04 08 be 98 95 c1 3d
       -0.112462066 0.04080757 -0.13282776 0.09452361
000010 3d a7 33 bd f9 77 11 3e 9d c7 00 be 95 da 13 be
       -0.043860663 0.14205922 -0.12576146 -0.14438851
000020 f4 cd d2 3d 1e 61 3a be a7 f4 d0 3d 2a 0d 25 3e
       0.10293189 -0.1820111 0.10202914 0.16118303
000030 a0 21 08 be 8a 3c 18 3d e0 d3 d9 3d d2 38 f0 3d
       -0.13294077 0.03716711 0.10636115 0.117295876
000040 cb 96 88 bd 07 53 d9 3d ea e6 21 3e 32 8c 05 be
       -0.066693865 0.10611539 0.15810743 -0.13041762
000050 33 5e 00 3d 1d 0e 18 3e f2 76 de bd fd c2 fd 3c
       0.031339835 0.14849134 -0.10862531 0.030976767
000060 67 0c 54 3d 71 57 ae bc 85 3a f0 bd 7c 06 14 3d
       0.05176964 -0.02128193 -0.11729912 0.036138996
000070 87 ee e8 bd 03 85 b8 bd 5e 03 2e 3d 31 9d 11 be
       -0.113736205 -0.09009745 0.04248368 -0.1422012
000080 e4 3d 07 3e 71 a1 be bd 98 f0 2b be fa 09 2d be
       0.13207203 -0.09308136 -0.16790998 -0.16898337
000090 60 c2 1b bd bb ed 32 3e d2 1e 18 be aa 51 27 3e
       -0.038027167 0.174735 -0.14855507 0.16339746
0000a0 18 bd a6 3c 24 54 0c 3e 08 7c 40 3d 36 a4 03 be
       0.020353839 0.13703972 0.046993285 -0.1285561
0000b0 44 70 2d 3e 0d 6f 71 3d 00 68 cf bd e3 b4 d9 3c
       0.16937357 0.058943797 -0.10127258 0.026575511
0000c0 1e d2 46 3e 25 9c 0a be 82 94 f2 bd f5 a6 4a 3d
       0.19416091 -0.13536127 -0.11844732 0.04947563
0000d0 05 39 74 3c 5f 12 28 3d 7a 2b 18 be d1 2a 17 be
       0.014906173 0.041033145 -0.14860335 -0.14762427
0000e0 66 fa 71 bd 96 ff e8 bd 0c 8e 0c 3e 5a ae cf bd
       -0.05907669 -0.11376874 0.13726062 -0.10140677
0000f0 f3 a9 de bd da d1 5f bd 9c e4 b8 3d 50 16 89 3d
       -0.10872259 -0.05464349 0.09027979 0.06693709

bias f4 [2]
000000 be 41 29 3c a2 10 9b bd
       0.010330616 -0.07571532
