net.model (torch, 396191 bytes, 4 tensors)

weight f4 [32, 3072]
0	0x3c5cfcda	0.013488019
1	0x3c700087	0.014648563
2	0xbb95bead	-0.0045698495
3	0x3c84ca50	0.016209751
4	0xbb8b393c	-0.004248766
5	0x3b5e3f6f	0.003391232
6	0xbc13d774	-0.009023536
7	0x3c2a310a	0.010387668
8	0x3c80ca63	0.015721506
9	0xbc5a7293	-0.013332981
10	0x3c804596	0.015658181
11	0x3b5cb5b7	0.0033677646
12	0x3c59c908	0.0132925585
13	0x3b1a87dc	0.0023579514
14	0x3c0cf53a	0.008603388
15	0xbb29704b	-0.0025854285
16	0x3c638af5	0.01388811
17	0x3b2ec515	0.0026667763
18	0xbc0a0596	-0.008424183
19	0x3b9794e3	0.004625903
20	0xbc08f09e	-0.008358149
21	0xbb0eeb7d	-0.0021807842
22	0xbbf240e6	-0.0073929904
23	0x3c432cdd	0.011912552
24	0xbc6ab729	-0.014325895
25	0xbc0a1af1	-0.008429275
26	0xbbab246e	-0.0052228486
27	0xbc340bf7	-0.010989181
28	0x3acb1ed9	0.0015496864
29	0xbc937675	-0.01800082
30	0x3c83c653	0.01608578
31	0xbc7ee6c5	-0.015557949
32	0x3c603d0f	0.0136864325
33	0x3b32e3d6	0.0027296445
34	0xbbc9701e	-0.0061473986
35	0x3c31b0a3	0.010845336
36	0x3b27818f	0.00255594
37	0x3c6ae442	0.0143366475
38	0x3ae83d21	0.0017718413
39	0xbbbe06b1	-0.0057991375
40	0x3b9c666c	0.004772952
41	0xbba07ed6	-0.0048979325
42	0x3bfaa8ab	0.0076495013
43	0x3c8469e3	0.016163772
44	0x3c2be519	0.010491633
45	0xbc0038c1	-0.007826031
46	0x3c2bf0cf	0.010494425
47	0x3b58b4d1	0.003306676
48	0x3c1711f7	0.009220592
49	0xbc32aa3e	-0.010904847
50	0xbc9167c7	-0.01774968
51	0xbbe0029a	-0.0068362476
52	0xbc61773c	-0.013761338
53	0x3c735a22	0.014853032
54	0x3baa73a8	0.0052017756
55	0x3bf48100	0.007461667
56	0x3bba1f91	0.0056800325
57	0xb9d8e567	-0.00041369649
58	0x3c6509a1	0.0139793465
59	0xbc5454aa	-0.012959639
60	0x3a82fe71	0.0009994042
61	0xbc4c23c9	-0.012459704
62	0x3bafadfa	0.005361316
63	0xbbd26f08	-0.0064219274
64	0x3bb1d41a	0.005426896
65	0xbb8146fb	-0.003945229
66	0x3c71c7c5	0.014757101
67	0xbc31d4cd	-0.010853958
68	0xbc330b8a	-0.010928044
69	0xbc335324	-0.010945115
70	0x3c840ba4	0.016118832
71	0x3bc4abc1	0.00600192
72	0x3c8e55e2	0.017374936
73	0xbc731bbe	-0.014838157
74	0xbc917d26	-0.01775987
75	0xbc64d493	-0.013966697
76	0xbc44d1b7	-0.012012891
77	0x3bf48c0f	0.0074629853
78	0x3bda2ab6	0.0066579236
79	0x3c788eb1	0.015170739
80	0xbc1671f3	-0.009182441
81	0xbc46d213	-0.0121350465
82	0x3c1f6cb6	0.009730509
83	0xbbea48f5	-0.0071498104
84	0x3c35658d	0.011071575
85	0xbb88e773	-0.0041779815
86	0x3c29e84d	0.010370326
87	0xbc64d4a7	-0.013966716
88	0xbc142ed8	-0.009044372
89	0x3bb2e165	0.005458998
90	0x3b722314	0.0036947178
91	0xbb9a8df8	-0.004716631
92	0x3c2e3349	0.0106323445
93	0x3c47004d	0.012146068
94	0xbc5937d3	-0.013257938
95	0xbc209173	-0.009800303
96	0x3c871215	0.016488114
97	0xbbcb68bc	-0.0062075537
98	0xbbd5cd89	-0.006524746
99	0xbc8f904f	-0.017524866
100	0xbc2aa104	-0.010414366
101	0x3b9168f2	0.0044375593
102	0xbb1b28f7	-0.002367554
103	0xbc55458b	-0.013017069
104	0x3a060ef3	0.0005113922
105	0xbc47ad2b	-0.012187283
106	0xbc77c3d5	-0.015122374
107	0xbc1ec896	-0.009691378
108	0xbc7ec6f5	-0.015550365
109	0xbc37dbf5	-0.011221875
110	0x3c9655e6	0.018351506
111	0x3b720f09	0.0036935231
112	0x3bbe4560	0.00580661
113	0xbc87e5b1	-0.016589018
114	0xbc3e8546	-0.011628455
115	0xbbbdc88c	-0.0057917293
116	0x3b46c518	0.003032988
117	0xbc80c542	-0.01571906
118	0xbbfb0252	-0.0076601887
119	0xbc2f5806	-0.010702139
120	0x3921138b	0.00015361437
121	0xbbdbb85a	-0.006705326
122	0xbaaa0ff7	-0.0012974729
123	0xbc494de8	-0.012286641
124	0xbc4c044e	-0.012452198
125	0xbc2dc732	-0.010606574
126	0xbbcd5c28	-0.0062670894
127	0xbc6ad218	-0.014332317
128	0x3c786e7c	0.01516306
129	0xbb6cd853	-0.0036139681
130	0x3c7d9791	0.015478031
131	0x3bb81be7	0.0056185606
132	0xbc7a0ffc	-0.0152626
133	0x3c4d3e66	0.012527084
134	0xbb9fa46c	-0.0048718955
135	0xbbddbb63	-0.006766723
136	0xbc7229a1	-0.014780433
137	0xbc9109bf	-0.017704843
138	0x3bb2ad06	0.005452755
139	0xbb69e0b4	-0.0035686912
140	0x3bf2a19f	0.0074045206
141	0xbc6ca74a	-0.014444182
142	0x3c61fa3c	0.013792571
143	0xbc5316e1	-0.012883873
144	0xbb35cd91	-0.0027740935
145	0x3b86b4a2	0.0041108886
146	0x3c1dd344	0.009632889
147	0x3c72fdc8	0.014831014
148	0x3c88b3c2	0.016687278
149	0xbc669a31	-0.014074848
150	0x3b9b179d	0.0047330395
151	0xbbf90029	-0.007598896
152	0xbaed2aea	-0.0018094454
153	0xbc5b9b01	-0.013403655
154	0x3c86d12c	0.016457163
155	0xbc59497d	-0.01326215
156	0x3c1db728	0.009626187
157	0x3bcec076	0.006309564
158	0x3bbfa190	0.005848117
159	0xbc1fd4f3	-0.009755361
160	0x3c8712ff	0.01648855
161	0x3b82b451	0.0039887805
162	0x3b185109	0.002324166
163	0xbc81f4e7	-0.015863849
164	0x3bfb1d68	0.0076634176
165	0xbb293919	-0.0025821386
166	0xbc050c9d	-0.008120683
167	0x3c80e2f9	0.015733229
168	0x3b8d79d9	0.004317504
169	0xbc1e791c	-0.009672429
170	0xbc0f71fd	-0.008755204
171	0xb9de09e5	-0.00042350512
172	0x3c2c9263	0.010532948
173	0xbb86da94	-0.004115412
174	0xbc203e74	-0.009780515
175	0xbbba8bca	-0.0056929337
176	0xbc54e1ea	-0.012993315
177	0x3be2f941	0.006926686
178	0x3c6bf272	0.014401065
179	0xbc87e235	-0.016587356
180	0x3b95ed4e	0.004575408
181	0x3c1e5830	0.00966458
182	0x3b6dd05f	0.003628753
183	0xbbc7fb95	-0.006102989
184	0x3c1eafe3	0.009685489
185	0x3c1f02a1	0.009705217
186	0x3be11d80	0.0068699718
187	0xbb4bf005	-0.0031118405
188	0xbb9b60f8	-0.004741784
189	0x3afa8ebb	0.0019116023
190	0xbb506ea4	-0.0031804228
191	0xbbaec9c3	-0.0053341105
192	0x3c3fc60d	0.011704934
193	0x3c7ff775	0.015622963
194	0xbadfa85c	-0.0017063725
195	0xbb80b01d	-0.0039272443
196	0x39c6cf56	0.0003791998
197	0xba71f235	-0.0009229512
198	0x3b94df05	0.0045431876
199	0x3bb043fc	0.005379198
200	0xbc830aae	-0.015996303
201	0xbbcc2ca0	-0.0062309057
202	0x3c804eba	0.01566254
203	0x3bf821e9	0.007572402
204	0xb9a84097	-0.0003209158
205	0xbc27f457	-0.010251126
206	0xbc2a0b90	-0.010378733
207	0xbc7e72ec	-0.015530329
208	0xbbac8391	-0.0052647074
209	0x3bdb7e2d	0.006698391
210	0x3c455e88	0.012046464
211	0x3c10d0fe	0.00883889
212	0xbc7d4aca	-0.015459726
213	0xbc2af5b0	-0.010434553
214	0xbb1f7d12	-0.0024336022
215	0x3c9210b6	0.017830234
216	0x3b3f3dc3	0.00291811
217	0xbb91c28f	-0.004448242
218	0x3bf8cc8a	0.0075927423
219	0xbbde433f	-0.0067829187
220	0xbc3e1b30	-0.011603162
221	0x3c58639a	0.013207341
222	0xbc058872	-0.008150207
223	0xbb66ba87	-0.0035206394
224	0xbc90d73d	-0.017680759
225	0x3c490ee9	0.012271621
226	0x3c61ca60	0.01378116
227	0x3bdca7e9	0.0067338836
228	0xbc4b7d3e	-0.012419997
229	0xbc8fe8a9	-0.017566996
230	0xbc6a8ff7	-0.01431655
231	0x3c63041d	0.013855961
232	0x3c15be4b	0.009139608
233	0x3c80df6f	0.015731541
234	0x3c246b44	0.01003534
235	0x3baa9eaf	0.005206905
236	0x3a027e5f	0.0004977937
237	0xbc54b713	-0.012983101
238	0xbc709fa6	-0.014686501
239	0xbc847da4	-0.016173191
240	0x3c0433a6	0.008068955
241	0xbc05a19b	-0.0081562055
242	0xbb40a9bc	-0.0029398045
243	0xbc1f6d0f	-0.009730591
244	0xbb31da68	-0.0027138237
245	0xbc489d87	-0.012244589
246	0xbc3a18f0	-0.011358485
247	0x3bd06ef0	0.006360881
248	0xbba5ee67	-0.00506382
249	0x3c3a39f6	0.011366358
250	0xbbb8b33c	-0.005636601
251	0xbc5714c7	-0.013127512
252	0xbb49ae1d	-0.0030773946
253	0xbc0e7b52	-0.008696394
254	0xbbb375b9	-0.00547668
255	0xbc8bdf00	-0.017074108

bias f4 [32]
0	0x3c309c41	0.010779441
1	0xbb6c9313	-0.0036098405
2	0xbbb3b54e	-0.0054842597
3	0xbbcdd13f	-0.0062810476
4	0x3a78ddf4	0.0009493523
5	0x3c8883a9	0.016664343
6	0x3c8d07b8	0.017215595
7	0xbc5cf471	-0.013486014
8	0xbc883e70	-0.016631335
9	0xbc1cd188	-0.0095714405
10	0xbbe64de0	-0.0070283264
11	0xbc047130	-0.008083627
12	0x3c57fac2	0.013182344
13	0xbc856f92	-0.016288552
14	0x3c82a657	0.015948458
15	0xbc0c017f	-0.008545279
16	0x3ca0d79c	0.01963406
17	0x3c581f9b	0.013191129
18	0xbbc368f9	-0.0059634415
19	0x3c6baf63	0.014385077
20	0x3a5ced69	0.0008427711
21	0x3c8b3de5	0.016997287
22	0x3c6ec558	0.014573418
23	0xbc4edd98	-0.012626074
24	0x3c8a821e	0.016907748
25	0xbc6b8fad	-0.014377517
26	0x3c7ac5bc	0.015305933
27	0x3c506169	0.012718537
28	0x3c9508fc	0.01819276
29	0x3ab3758c	0.0013691648
30	0xbc1428f7	-0.00904297
31	0xb945f3a1	-0.00018878143

weight f4 [2, 32]
0	0xbe03957f	-0.12849997
1	0x3ca1bacd	0.019742394
2	0xbe25cb8b	-0.16190927
3	0x3d953e12	0.072872296
4	0xbd6537e1	-0.055961493
5	0x3e02a1d8	0.12757051
6	0xbe124f93	-0.14288168
7	0xbe18a232	-0.14905623
8	0x3dba87c1	0.09107924
9	0xbe3dedba	-0.18547717
10	0x3da591bf	0.080844395
11	0x3e15cba9	0.14628471
12	0xbe1256ac	-0.14290875
13	0x3cdec540	0.027193666
14	0x3dca01c5	0.09863619
15	0x3dd45d52	0.10369362
16	0xbd8b0583	-0.06788161
17	0x3dddc319	0.108282275
18	0x3e237291	0.15961672
19	0xbe13e97c	-0.14444536
20	0x3c82b395	0.015954772
21	0x3df76e5d	0.12081597
22	0xbdfdd319	-0.12393779
23	0x3cdb19b0	0.026745647
24	0x3d473bb3	0.048640918
25	0xbd11ac2c	-0.035564587
26	0xbe083e51	-0.13305022
27	0x3c87a375	0.016557435
28	0xbe0c055f	-0.13673924
29	0xbdd6ddaf	-0.104915015
30	0x3ce3effb	0.027824393
31	0xbe109f1d	-0.14123197
32	0x3e17aa21	0.14810993
33	0xbd937d39	-0.07201619
34	0xbe0e290d	-0.13882847
35	0xbe16de37	-0.14733206
36	0xbcd46375	-0.025926331
37	0x3e41c3dc	0.1892237
38	0xbe0696dc	-0.13143486
39	0x3e2c1944	0.16806513
40	0x3d03eaf0	0.032206476
41	0x3e0fe0c0	0.14050579
42	0x3d8ba0f0	0.06817806
43	0xbde8c56c	-0.1136578
44	0x3e37a551	0.17934157
45	0x3d8d247d	0.06891725
46	0xbdbf95e5	-0.09354762
47	0x3d249170	0.040177763
48	0x3e48097d	0.1953487
49	0xbe0cd42f	-0.13752817
50	0xbdf5abd2	-0.11995663
51	0x3d820e14	0.063503414
52	0x3cf82554	0.030291237
53	0x3d8cb709	0.06870849
54	0xbe087d64	-0.13329083
55	0xbe12d5a6	-0.14339313
56	0xbd6529af	-0.055947956
57	0xbdcbbf5b	-0.099486075
58	0x3e1caf20	0.1530118
59	0xbda793fb	-0.08182522
60	0xbdaf8db5	-0.0857195
61	0xbd23208a	-0.039825954
62	0x3dd6ea45	0.10493902
63	0x3d871a35	0.065967955

bias f4 [2]
0	0x3ce60b2f	0.028081505
1	0xbdbf6b37	-0.093466215
