net.model (torch, 396319 bytes, 4 tensors)

weight f4 [32, 3072]
000000 c9 33 62 3c d5 30 74 3c 08 03 8d bb 5a 24 87 3c
       0.013806292 0.014904221 -0.00430334 0.016496826
000010 6b 01 80 bb 0e 78 74 3b 2c 62 0e bc d5 82 30 3c
       -0.003906419 0.0037303003 -0.008690398 0.01077338
000020 9a 03 84 3c 10 85 52 bc 74 dd 84 3c ae ca 80 3b
       0.016114999 -0.012849107 0.016218878 0.0039304113
000030 b6 c0 63 3c 3f ae 42 3b 9f 8b 16 3c c3 1c 02 bb
       0.013900926 0.002970591 0.009188562 -0.001985357
000040 86 a4 6d 3c ed 16 57 3b e7 ff 00 bc f7 9b a8 3b
       0.0145045575 0.0032820061 -0.007873512 0.0051455456
000050 34 33 02 bc 84 a2 ee ba af 3f e7 bb 4b f9 47 3c
       -0.007946778 -0.0018206392 -0.007057152 0.012205432
000060 94 75 65 bc 07 dc 03 bc ca 39 9d bb 1f 6a 2b bc
       -0.014005084 -0.008048064 -0.0047981488 -0.010462313
000070 16 1f 10 3b 41 9b 8d bc 59 a3 88 3c 6d 66 77 bc
       0.0021991185 -0.017285945 0.016679453 -0.015100104
000080 f1 41 68 3c 85 f7 48 3b 86 ad c1 bb 80 67 36 3c
       0.014175878 0.0030665111 -0.005910578 0.011133075
000090 a3 0f 42 3b 7d ac 71 3c 9f fe 0f 3b 1e e6 ae bb
       0.002961137 0.014750597 0.0021971834 -0.0053374907
0000a0 bd ec ab 3b 23 95 8e bb 13 73 06 3c 90 2b 89 3c
       0.0052467273 -0.0043512746 0.008206147 0.016744405
0000b0 bb e2 35 3c 32 3f eb bb 84 2b 37 3c 39 3c 83 3b
       0.01110142 -0.0071791643 0.0111798085 0.004004982
0000c0 95 bc 21 3c e4 30 28 bc 42 1b 8c bc 60 18 cc bb
       0.009871622 -0.010265563 -0.017102841 -0.0062284917
0000d0 6d c7 59 bc 5c 57 79 3c 46 5c b6 3b aa d9 00 3c
       -0.013292176 0.015218582 0.005565199 0.007864395
0000e0 7b 34 c6 3b 7c e8 85 b8 45 e7 6b 3c 9c 8e 4b bc
       0.0060487366 -6.385238e-05 0.014398401 -0.012424137
0000f0 58 87 d1 3a 3c 0e 41 bc b9 af c4 3b 0a c3 c1 bb
       0.001598577 -0.011783179 0.006002393 -0.005913143
000100 9a 72 c8 3b 21 64 61 bb a0 9d 78 3c 01 95 2a bc
       0.006117177 -0.0034391957 0.0151742995 -0.010411502
000110 93 dc 2a bc 7f c1 2b bc 4f d7 87 3c 5b 20 d6 3b
       -0.010428566 -0.010483145 0.01658216 0.006534619
000120 08 5d 92 3c 49 6f 6b bc f3 b9 8d bc 2e c7 5c bc
       0.017866626 -0.014369794 -0.017300582 -0.0134752225
000130 de 19 3c bc a5 86 04 3c 08 21 f2 3b f6 d7 81 3c
       -0.011480777 0.008088742 0.0073891915 0.015850049
000140 e9 4e 0d bc 4c 1d 3d bc d5 38 29 3c 1c 0b d8 bb
       -0.008624771 -0.011542629 0.010328491 -0.006593121
000150 05 7f 3c 3c ae f3 77 bb 9a a3 30 3c 9f 70 5c bc
       0.011504893 -0.0037834453 0.010781193 -0.013454585
000160 4d bd 0b bc ce 8f c1 3b 2f d5 87 3b d5 04 89 bb
       -0.00852902 0.0059070354 0.0041452865 -0.004181484
000170 c3 4d 38 3c 1f 6d 52 3c 6a 00 4e bc c5 ea 16 bc
       0.011249009 0.012843399 -0.012573341 -0.009211247
000180 eb 01 8e 3c 33 97 b4 bb f5 70 c3 bb 62 09 8b bc
       0.017334899 -0.0055111884 -0.0059643933 -0.016972248
000190 fc e6 21 bc fe c8 9f 3b 62 48 f9 ba f4 97 4b bc
       -0.009881731 0.004876255 -0.0019018764 -0.012426365
0001a0 d3 88 85 3a 0d d2 3e bc dd 06 6f bc e5 23 16 bc
       0.0010187872 -0.01164676 -0.014589039 -0.009163831
0001b0 55 05 76 bc 04 61 2d bc 69 1b 9c 3c 73 ac 8d 3b
       -0.01501592 -0.010582212 0.019056039 0.004323536
0001c0 02 e0 cf 3b 99 b6 83 bc 21 06 38 bc 6e 66 b1 bb
       0.0063438425 -0.01607828 -0.01123193 -0.005413822
0001d0 26 0c 63 3b fc 61 7b bc 4c 47 ee bb 62 bd 27 bc
       0.0034644692 -0.0153431855 -0.007271683 -0.0102380235
0001e0 58 2e 36 3a bb ef ca bb 2b ce 56 ba e7 b6 41 bc
       0.0006949655 -0.006193129 -0.00081941736 -0.0118233925
0001f0 fe 13 42 bc d8 34 21 bc f4 de b3 bb 00 57 60 bc
       -0.011845587 -0.009839259 -0.0054892246 -0.013692617
000200 9e 98 83 3c ff 9c 35 bb d3 32 84 3c 8f 7d ce 3b
       0.016063984 -0.0027711985 0.016137516 0.006301589
000210 ec f5 6e bc 62 fe 55 3c 80 2a 8f bb ba cd cc bb
       -0.0145849995 0.013061138 -0.00436908 -0.0062501105
000220 90 e5 69 bc b1 14 8c bc 25 cd c7 3b 66 25 45 bb
       -0.014275923 -0.01709971 0.006097453 -0.0030082106
000230 0f c0 02 3c ca 59 62 bc f7 1b 6b 3c fd 8c 4a bc
       0.007980361 -0.013815353 0.014349929 -0.012362716
000240 1d a1 0f bb d4 fa 9a 3b 0d 95 26 3c c3 e7 7a 3c
       -0.00219161 0.004729608 0.010167372 0.015314045
000250 49 38 8d 3c a6 11 5e bc 7c eb a8 3b 8a 3b eb bb
       0.017238753 -0.013554012 0.005155025 -0.0071787285
000260 69 8f ae ba 28 82 53 bc 5d 75 8a 3c 28 f2 51 bc
       -0.0013317886 -0.01290945 0.016901666 -0.012814082
000270 bb 3d 28 3c 2d 01 e9 3b 11 e0 da 3b e1 12 13 bc
       0.010268624 0.007110736 0.006679543 -0.008976669
000280 b1 67 8e 3c 81 4b 9e 3b 5c 4b 48 3b 3a 52 78 bc
       0.017383428 0.004830778 0.0030562496 -0.015156323
000290 ef af 09 3c 07 24 00 bb 8a c7 f7 bb 33 0a 85 3c
       0.008403762 -0.0019552724 -0.0075616287 0.016240215
0002a0 a7 a2 9f 3b 81 a8 15 bc 67 a4 06 bc d1 6c 3c 38
       0.0048716846 -0.009134413 -0.0082179075 4.4924036e-05
0002b0 23 96 35 3c 3d b4 65 bb c2 cc 18 bc 87 81 ab bb
       0.011083159 -0.0035050057 -0.009326162 -0.0052339467
0002c0 cf 1b 4b bc 6a 37 fa 3b 43 6a 76 3c 4b d4 82 bc
       -0.012396767 0.0076360004 0.015039983 -0.01597037
0002d0 72 d5 a8 3b 31 bc 26 3c 6b ef 86 3b 0a f0 b8 bb
       0.005152398 0.010176704 0.0041178963 -0.0056438493
0002e0 04 3d 26 3c 26 21 27 3c aa a5 ef 3b a8 c4 26 bb
       0.010146383 0.010200774 0.00731345 -0.0025446806
0002f0 2e f1 83 bb 92 18 2b 3b 97 ce 20 bb d7 e5 92 bb
       -0.0040265536 0.0026107174 -0.00245372 -0.0044829655
000300 d1 90 4f 3c 06 c7 86 3c 90 7a 7d ba 64 a0 56 bb
       0.012668804 0.016452324 -0.00096694473 -0.003274941
000310 84 24 85 3a bb a1 a6 b9 64 21 a7 3b 88 6d c0 3b
       0.0010157977 -0.00031782486 0.005100416 0.005872432
000320 38 27 7e bc aa 6f bd bb 58 1c 84 3c a2 9d 03 3c
       -0.01551228 -0.0057811337 0.016126797 0.008033188
000330 59 7d 07 39 07 0d 1f bc 7b 5b 23 bc 38 9d 76 bc
       0.00012921299 -0.009707696 -0.009970541 -0.015052132
000340 07 c5 99 bb 45 81 f0 3b 8c b4 4d 3c 14 3a 18 3c
       -0.004692677 0.007339629 0.012555253 0.009291191
000350 27 28 77 bc 2f 24 25 bc 3f 24 02 bb 36 8a 95 3c
       -0.015085257 -0.010079428 -0.001985803 0.01825438
000360 5b 67 5c 3b e1 fd 81 bb 2f 96 02 3c 01 ec cd bb
       0.003363094 -0.0039670323 0.007970377 -0.0062842374
000370 37 cd 32 bc 39 2b 63 3c ad c3 f5 bb 1c d6 30 bb
       -0.010913185 0.013865286 -0.007500133 -0.0026983088
000380 25 4e 88 bc 14 ab 57 3c b0 0d 6d 3c 95 fb ef 3b
       -0.016638825 0.013163347 0.014468595 0.007323692
000390 99 24 41 bc 93 a9 8a bc e4 bc 60 bc 76 d4 6b 3c
       -0.011788511 -0.016926562 -0.01371691 0.014393916
0003a0 e3 20 1e 3c 35 86 85 3c 55 e5 2c 3c 71 c8 bb 3b
       0.0096513955 0.016299346 0.010552724 0.0057306816
0003b0 fe e8 6a 3a 0c b9 4d bc b0 25 6a bc 2a 69 80 bc
       0.000896111 -0.012556326 -0.014291212 -0.015675146
0003c0 1c 6d 0d 3c 03 66 f7 bb 9e 3b 1b bb 53 3a 17 bc
       0.008631971 -0.0075500025 -0.0023686658 -0.009230214
0003d0 29 df 1a bb 6b 39 42 bc 98 a6 33 bc a8 a1 d9 3b
       -0.002363155 -0.01185451 -0.010965012 0.0066415854
0003e0 f7 1f 9a bb 30 04 42 3c bb 66 ac bb 2a 29 4f bc
       -0.0047035175 0.011841819 -0.00526127 -0.012644092
0003f0 5f 65 1f bb 3e c3 04 bc 00 0d a0 bb 3e fa 85 bc
       -0.0024321896 -0.00810319 -0.004884362 -0.016354676

bias f4 [32]
000000 49 f9 29 3c b1 99 03 ba 6a 39 be bb 49 ce b3 bb
       0.010374376 -0.0005020155 -0.005805184 -0.0054872376
000010 90 49 7d bb c0 c1 c5 3c c8 65 8a 3c 00 01 2c bc
       -0.0038648583 0.024140239 0.016894236 -0.010498285
000020 7e ba 5d bc 9d ee 96 bb b5 ba fa bb d4 c8 db bb
       -0.013533233 -0.0046060816 -0.0076516517 -0.00670729
000030 e6 93 a3 3c 0e b8 83 bc ec bb 63 3c 69 cb d5 bb
       0.019967984 -0.016078975 0.013899785 -0.0065244925
000040 53 1e d7 3c 41 74 89 3c ba 1b 26 bb 19 a6 83 3c
       0.026259577 0.016779067 -0.0025346116 0.016070412
000050 16 84 82 3b ab 47 b9 3c 41 6d 50 3c b9 1a 69 bc
       0.003983031 0.022617182 0.012721361 -0.014227563
000060 5e 66 89 3c 32 11 45 bc e8 cb 58 3c cc 40 6f 3c
       0.016772445 -0.012028025 0.013232209 0.014602851
000070 3e 36 90 3c a8 d7 3a ba 03 15 c0 bb 5c 5b d3 39
       0.01760399 -0.0007127472 -0.00586188 0.00040313124

weight f4 [3, 32]
000000 78 de d2 bd ef 4d 28 3d 5d 22 0d be 24 20 bf 3d
       -0.10296339 0.04108995 -0.1378264 0.09332302
000010 78 d0 07 bd 01 15 22 3e f0 39 f5 bd 36 ed 01 be
       -0.033157796 0.15828325 -0.11973941 -0.12688145
000020 67 f8 ef 3d 05 55 1e be 74 29 d2 3d 24 42 2b 3e
       0.11717301 -0.1546212 0.10261813 0.1672445
000030 79 b3 f7 bd 20 cd 45 3d 54 1e f9 3d 30 43 00 3e
       -0.120947786 0.048291326 0.12163988 0.1252563
000040 3e c4 36 bd ef b9 05 3e 61 4f 3a 3e 26 8f f9 bd
       -0.044620745 0.1305921 0.18194343 -0.121855065
000050 c9 28 18 3d 8a 71 15 3e 87 c4 d0 bd 10 8b 3c 3d
       0.03714827 0.14594093 -0.101937346 0.046031058
000060 b7 bb 8e 3d 8d af 05 bc b8 87 dc bd 59 22 25 3d
       0.069693975 -0.00815953 -0.10768074 0.04031596
000070 99 9f e2 bd b0 cf aa bd a4 b8 52 3d 27 ad ef bd
       -0.11065597 -0.083403945 0.05144562 -0.11702948
000080 50 44 0b 3e 25 19 a4 bd 3d 52 1d be 04 1d 21 be
       0.13600278 -0.080126084 -0.15363403 -0.15733725
000090 a5 83 2f bd 90 9a 3f 3e 89 9b 14 be 4e 07 27 3e
       -0.042850155 0.18711305 -0.14512457 0.1631138
0000a0 f5 8e dc 3c d6 f8 10 3e 5d af 57 3d 14 ee 00 be
       0.026923636 0.14157423 0.052657474 -0.1259082
0000b0 7f 6a 40 3e c0 dd 7a 3d 3f 0f d6 bd b4 41 e8 3c
       0.18790625 0.061246634 -0.10452127 0.028351642
0000c0 60 59 42 3e 21 d4 16 be bd fa 04 be c9 2b 56 3d
       0.18979406 -0.14729358 -0.12986274 0.05228785
0000d0 b0 a9 89 3c 68 d9 8b 3d cd a9 15 be 94 8c 1f be
       0.016804546 0.06828576 -0.14615555 -0.1558097
0000e0 b4 47 80 bd 16 ec d5 bd bd 1b 0d 3e bb 0e bc bd
       -0.06263676 -0.104454204 0.13780113 -0.09182497
0000f0 86 89 c7 bd c0 cd 5f bd d2 f2 c9 3d 86 e0 7f 3d
       -0.097430274 -0.054639578 0.098607674 0.06246998
000100 5f 78 5e 3d ec e0 15 be 08 22 12 be ea 52 c7 3c
       0.054314014 -0.14636582 -0.14270794 0.024331529
000110 dd 3c 2c 3e 11 48 0e be e3 30 02 be 16 c0 99 bc
       0.16820092 -0.13894679 -0.12713961 -0.018768352
000120 4c 0f 86 bd 40 08 29 be 5f ca d6 3d 1a c6 5b 3d
       -0.065458864 -0.16507053 0.10487818 0.05365572
000130 dc 5f e8 bd e3 73 05 3d e8 1b 20 3e ed 91 8d ba
       -0.11346409 0.03258122 0.15635645 -0.0010800936
000140 c4 2c 3c be 81 c9 bb bd fa 75 05 bd c8 4c ab bd
       -0.18376452 -0.09169293 -0.032583214 -0.08364254
000150 56 4c fb bd c8 1c 06 be 10 c2 9d bd 6a 70 99 3d
       -0.12270419 -0.13096917 -0.0770303 0.074921444
000160 bd 91 f1 3c 61 96 21 be d4 31 09 3e 48 14 b9 bd
       0.029488439 -0.15780021 0.13397914 -0.090370715
000170 20 36 ce bd 09 fc 12 3c 29 e1 ae bd b9 80 da bb
       -0.10068917 0.008971223 -0.0853904 -0.006668177

bias f4 [3]
000000 54 29 2e 3e 3c 52 db 3d e9 74 a5 bd
       0.17007953 0.10709044 -0.080789395
