net.model (torch, 396511 bytes, 4 tensors)

weight f4 [32, 3072]
0	0x3c6f459d	0.014603999
1	0x3c80f32a	0.01574095
2	0xbb78b131	-0.0037947411
3	0x3c81b33f	0.015832542
4	0xbba2ebd9	-0.004971963
5	0x3b40e215	0.002943163
6	0xbc1af8b3	-0.009458709
7	0x3c2b7510	0.010464922
8	0x3c7fb61d	0.015607384
9	0xbc43b0a2	-0.011943968
10	0x3c8ec806	0.017429363
11	0x3b9b2708	0.0047348775
12	0x3c697f86	0.014251595
13	0x3b36f6d0	0.0027918108
14	0x3c0985a2	0.008393677
15	0xbb0f8395	-0.0021898497
16	0x3c6cfd4a	0.014464686
17	0x3b544842	0.0032391702
18	0xbbf65785	-0.0075177574
19	0x3bd7d3bf	0.0065865214
20	0xbc01a780	-0.00791347
21	0xbb0bee49	-0.0021351746
22	0xbbe7e94f	-0.007077373
23	0x3c47aec4	0.0121876635
24	0xbc604d3d	-0.01369029
25	0xbbef32a9	-0.0072997403
26	0xbb7ce59b	-0.0038589004
27	0xbc137e81	-0.009002329
28	0x3b90526c	0.0044043567
29	0xbc707379	-0.014675968
30	0x3c9a9d3a	0.0188738
31	0xbc61f58d	-0.013791454
32	0x3c83797d	0.016049141
33	0x3b5c5b8a	0.0033623897
34	0xbbdad0a5	-0.0066777044
35	0x3c1de022	0.009635957
36	0x3ad4d8e3	0.0016238954
37	0x3c563896	0.013075015
38	0x3a43e703	0.0007473083
39	0xbbad8979	-0.005295929
40	0x3bb357a9	0.0054730964
41	0xbb6260ce	-0.0034542563
42	0x3c14c221	0.009079487
43	0x3c8eef6c	0.01744815
44	0x3c3c0935	0.0114768045
45	0xbbd82bda	-0.0065970244
46	0x3c3abf77	0.011398188
47	0x3b8b5a5d	0.0042527155
48	0x3c23ece1	0.010005207
49	0xbc2381c1	-0.009979666
50	0xbc845017	-0.016151471
51	0xbb9a54ef	-0.004709832
52	0xbc54596b	-0.012960772
53	0x3c719cf0	0.0147468895
54	0x3b9b1e4c	0.0047338363
55	0x3be82ab4	0.0070851687
56	0x3bbe2ceb	0.0058036945
57	0xba648d92	-0.00087186054
58	0x3c64ef82	0.013973119
59	0xbc40acbc	-0.011759933
60	0x3b2a0e68	0.0025948528
61	0xbc23ff28	-0.010009564
62	0x3bfd94af	0.0077386717
63	0xbb950f84	-0.0045489687
64	0x3c1dd114	0.009632368
65	0xbb0db55f	-0.0021622998
66	0x3c7bd401	0.01537037
67	0xbc263f41	-0.010146917
68	0xbc357e24	-0.011077438
69	0xbc4d13a9	-0.012516894
70	0x3c742aee	0.014902813
71	0x3bde02a7	0.0067752185
72	0x3c8fbddd	0.017546589
73	0xbc70f1c9	-0.014706084
74	0xbc8efc6d	-0.01745435
75	0xbc5a1b95	-0.01331224
76	0xbc447830	-0.011991546
77	0x3c0391b3	0.008030343
78	0x3be56500	0.0070005655
79	0x3c75e350	0.015007809
80	0xbc2961cc	-0.010338258
81	0xbc4ed093	-0.01262297
82	0x3c2176df	0.009855001
83	0xbbf27e77	-0.0074003297
84	0x3c2fb0ca	0.010723302
85	0xbb936ff7	-0.0044994312
86	0x3c256a45	0.010096137
87	0xbc597f85	-0.013275032
88	0xbbee800a	-0.007278447
89	0x3bc4320d	0.005987412
90	0x3b692b06	0.0035578622
91	0xbb6ea940	-0.0036416799
92	0x3c4a780c	0.012357723
93	0x3c7214e3	0.014775488
94	0xbc307473	-0.010769951
95	0xbbf66080	-0.007518828
96	0x3cb3bcaf	0.021940557
97	0xbb4ba2a5	-0.0031072285
98	0xbba5e83e	-0.005063086
99	0xbc839a4d	-0.016064787
100	0xbc27a601	-0.0102324495
101	0x3b23cdd4	0.002499451
102	0xbb85165b	-0.004061503
103	0xbc5248bc	-0.012834724
104	0xb8cc03b2	-9.728166e-05
105	0xbc4ac59c	-0.012376215
106	0xbc8476d3	-0.016169941
107	0xbc2390d5	-0.009983261
108	0xbc8001c6	-0.015625846
109	0xbc323a7e	-0.010878203
110	0x3c9aefc7	0.018913163
111	0x3b497a09	0.0030742905
112	0x3b8d5940	0.004313618
113	0xbc95270b	-0.018207094
114	0xbc62c02a	-0.013839761
115	0xbc0770c6	-0.008266633
116	0x3a8a2cd3	0.0010541923
117	0xbc90bfe6	-0.01766963
118	0xbc19c1c1	-0.009384573
119	0xbc437256	-0.011929115
120	0x39c8c9b9	0.00038297268
121	0xbbce9483	-0.006304325
122	0xba80f5ae	-0.0009838843
123	0xbc34d612	-0.011037366
124	0xbc27d74d	-0.010244203
125	0xbbf32124	-0.007419722
126	0xbb0e6415	-0.0021727134
127	0xbc3602b4	-0.011109043
128	0x3caae62a	0.020861704
129	0x38eb4094	0.00011217702
130	0x3c916cde	0.017752107
131	0x3c01a2e7	0.007912374
132	0xbc64b5e6	-0.013959384
133	0x3c375b32	0.011191176
134	0xbbdcbdad	-0.0067364783
135	0xbc0046d8	-0.0078293905
136	0xbc7f1436	-0.0155687835
137	0xbc8c558b	-0.017130634
138	0x3bbb432d	0.005714795
139	0xbb5a79d0	-0.0033336766
140	0x3c04dd67	0.008109427
141	0xbc6754ab	-0.0141193075
142	0x3c62fdb8	0.013854437
143	0xbc622650	-0.01380308
144	0xbb498433	-0.0030748963
145	0x3b544379	0.003238885
146	0x3c0b0f34	0.008487511
147	0x3c4cb12f	0.012493416
148	0x3c691529	0.014226236
149	0xbc87747d	-0.016535038
150	0x3b10927f	0.0022059975
151	0xbc1dd99f	-0.009634404
152	0xbb476396	-0.0030424348
153	0xbc5d47f3	-0.013505924
154	0x3c883c8a	0.01663043
155	0xbc490ad6	-0.01227065
156	0x3c3eb4bd	0.011639771
157	0x3c17f675	0.0092750685
158	0x3c262164	0.010139797
159	0xbb9ecc0a	-0.0048461007
160	0x3ca6fb71	0.020383568
161	0x3bd6c051	0.0065536876
162	0x3b840fc2	0.004030199
163	0xbc700b04	-0.014651064
164	0x3c0575aa	0.008145729
165	0xbb8c4bea	-0.0042815106
166	0xbc22db02	-0.009939911
167	0x3c746a9e	0.014917998
168	0x3b6b7d25	0.0035932746
169	0xbc1fb3b9	-0.009747439
170	0xbc0fc7b1	-0.0087756375
171	0xb9cfe967	-0.00039656015
172	0x3c40f437	0.011776975
173	0xbb1f37e1	-0.002429478
174	0xbc1d7ae2	-0.009611817
175	0xbbcfdbfe	-0.006343364
176	0xbc569db0	-0.013099119
177	0x3bf32bec	0.0074210074
178	0x3c7307e6	0.014833426
179	0xbc8e9656	-0.01740567
180	0x3b3e9911	0.0029082934
181	0x3bfd3140	0.0077268183
182	0x3b6158de	0.0034385244
183	0xbbafbd27	-0.005363125
184	0x3c205f33	0.009788322
185	0x3c2dcc51	0.010607795
186	0x3bff320e	0.0077879494
187	0xbb04ddad	-0.002027373
188	0xbb3f0421	-0.0029146748
189	0x3b72c72f	0.0037044992
190	0xb8808393	-6.128023e-05
191	0xb90fc89b	-0.00013712274
192	0x3c7fd00d	0.015613568
193	0x3c8f9ffc	0.017532341
194	0xbaa805d6	-0.0012819122
195	0xbb7cae3d	-0.0038556003
196	0xba3fec1c	-0.0007321255
197	0xbb463bfe	-0.003024816
198	0x3b4388bd	0.002983614
199	0x3ba24d26	0.0049530445
200	0xbc8ba769	-0.0170476
201	0xbbf7a864	-0.0075579155
202	0x3c739112	0.01486613
203	0x3c066141	0.008201898
204	0x3a814b3d	0.0009864342
205	0xbc0877d2	-0.008329349
206	0xbc1e9115	-0.009678145
207	0xbc80758b	-0.015681049
208	0xbbc28d63	-0.0059372648
209	0x3be340d3	0.006935218
210	0x3c410ee2	0.0117833335
211	0x3bec2ad5	0.0072072544
212	0xbc90c055	-0.017669836
213	0xbc4f66be	-0.012658773
214	0xbb215d81	-0.0024622383
215	0x3c9a03c4	0.018800624
216	0x3b4a7d25	0.0030897346
217	0xbb7c4565	-0.003849351
218	0x3bf569dc	0.007489426
219	0xbbe82c61	-0.0070853685
220	0xbc26404b	-0.010147165
221	0x3c6b1970	0.0143493265
222	0xbbbc1173	-0.005739385
223	0x3abab5b7	0.0014244829
224	0xbc46a578	-0.012124412
225	0x3c7be2b4	0.015373874
226	0x3c5da4f9	0.013528102
227	0x3bbdda7b	0.005793867
228	0xbc52e6a6	-0.012872374
229	0xbc8f950c	-0.017527126
230	0xbc611da3	-0.013739976
231	0x3c6ebada	0.014570916
232	0x3c148be0	0.009066552
233	0x3c839bb2	0.016065452
234	0x3c2f1914	0.010687131
235	0x3bd9d846	0.0066480963
236	0x3aab0b5f	0.0013049653
237	0xbc4504fd	-0.012025115
238	0xbc64469d	-0.013932851
239	0xbc83fe5b	-0.016112497
240	0x3be0ef23	0.006864445
241	0xbc04df9e	-0.008109955
242	0xbb0774c6	-0.0020668968
243	0xbc220b06	-0.0098903235
244	0xbb7df2c9	-0.0038749448
245	0xbc644994	-0.013933558
246	0xbc3b72f5	-0.011440982
247	0x3bcd23df	0.0062603797
248	0xbbd31063	-0.0064411624
249	0x3c2c6102	0.010521175
250	0xbbdfb62a	-0.0068271356
251	0xbc58b2ce	-0.013226224
252	0xbabdb861	-0.0014474505
253	0xbc09c2af	-0.008408233
254	0xbba018b4	-0.0048857573
255	0xbc6558b1	-0.013998196

bias f4 [32]
0	0x3ca97909	0.020687597
1	0xbb8ad2b0	-0.0042365417
2	0xbbc1f5b1	-0.0059191813
3	0xbc0c9481	-0.008580328
4	0x3a3987dd	0.0007077435
5	0x3c8ffe77	0.017577393
6	0x3c89a50b	0.016802331
7	0x3b62c8b7	0.0034604499
8	0xbc96c939	-0.018406497
9	0x3ba38f52	0.0049914503
10	0xbbf7cf27	-0.0075625363
11	0xbc34512c	-0.011005681
12	0x3d08771e	0.033316724
13	0xbc8068d2	-0.015674982
14	0x3c800f4a	0.01563229
15	0xbc149c27	-0.009070433
16	0x3ce16df7	0.027518256
17	0x3c41cd32	0.0118287075
18	0xbbb82afc	-0.0056203585
19	0x3cb2081e	0.021732386
20	0x3a3e830b	0.0007267452
21	0x3c814520	0.015780032
22	0x3c5472da	0.012966836
23	0xbc663c90	-0.014052525
24	0x3c7f8fdf	0.015598266
25	0xbc841a8a	-0.016125936
26	0x3ccbe5f7	0.02488993
27	0x3c4a2b2b	0.012339394
28	0x3c974869	0.018467145
29	0x3b055acc	0.0020348309
30	0xbc0b3af8	-0.008497946
31	0x3c24829b	0.010040904

weight f4 [2, 32]
0	0xbe159770	-0.1460855
1	0x3d51493f	0.051095244
2	0xbe07fe17	-0.13280521
3	0x3dee1c4e	0.116264924
4	0xbd2e9d9f	-0.042630788
5	0x3e0f11c1	0.13971616
6	0xbe005140	-0.12530994
7	0xbe402ef6	-0.18767914
8	0x3de91cd1	0.113824494
9	0xbe5b2253	-0.21399812
10	0x3dde1502	0.10843851
11	0x3e4cb752	0.19991806
12	0xbe4253e6	-0.18977317
13	0x3d03d917	0.032189455
14	0x3e13a92b	0.14420001
15	0x3e02d544	0.12776667
16	0xbdc5aa98	-0.09651679
17	0x3e275958	0.16342676
18	0x3e5267ba	0.20547381
19	0xbe2669ed	-0.16251345
20	0x3d136462	0.035984404
21	0x3e24fb7f	0.16111563
22	0xbdcf0ad2	-0.10109486
23	0x3d83828b	0.064213835
24	0x3d86cdac	0.065821975
25	0xbbf76ded	-0.007550946
26	0xbe0ee83d	-0.1395578
27	0x3d612f82	0.054976948
28	0xbdf02aa5	-0.11726884
29	0xbdc71c1e	-0.0972216
30	0x3d14b77c	0.036307797
31	0xbe2e8352	-0.17042282
32	0x3e29ac13	0.16569547
33	0xbdd3b2dc	-0.10336849
34	0xbe2bf681	-0.16793253
35	0xbe434d74	-0.19072515
36	0xbd20cbfd	-0.03925704
37	0x3e3553f4	0.17707807
38	0xbe18952f	-0.14900659
39	0x3e53a617	0.20668827
40	0x3c1b02ca	0.009461114
41	0x3e2d1542	0.1690264
42	0x3d263bfb	0.040584546
43	0xbe2b4e60	-0.16729116
44	0x3e67a29f	0.22620629
45	0x3d82e957	0.06392162
46	0xbe0e7332	-0.13911131
47	0x3c83ed09	0.016104238
48	0x3e655bb2	0.2239826
49	0xbe454bf9	-0.19267263
50	0xbe29cb13	-0.16581373
51	0x3da70e55	0.081570305
52	0x3c2820b2	0.010261701
53	0x3ce8bb1c	0.028409533
54	0xbe1fe15f	-0.15613316
55	0xbe3933f0	-0.18086219
56	0xbd95c47e	-0.073128685
57	0xbe028f02	-0.12749866
58	0x3e2358ea	0.15951887
59	0xbdf64331	-0.120245345
60	0xbdd76dd6	-0.105189964
61	0xbd42a427	-0.04751983
62	0x3dc58aef	0.0964564
63	0x3dc2e315	0.09515969

bias f4 [2]
0	0x3a924e49	0.0011162247
1	0xbd8831c5	-0.06650118
