net.model (torch, 396191 bytes, 4 tensors)

weight f4 [32, 3072]
0.005847607 0.0078285355 -0.009240609 0.01061058 -0.011530442 -0.0004789363 -0.010964762 0.0082411915
0.011849298 -0.017599238 0.008910343 -0.002035941 0.009414732 -0.0003770828 0.0067271893 -0.0026698196
0.013131187 0.0003309535 -0.00965588 0.0033915825 -0.009077173 -0.0032511365 -0.008426683 0.011473264
-0.014105706 -0.007891246 -0.0069251196 -0.013672025 -0.0020415483 -0.023431735 0.0093895905 -0.022532197
0.0070145135 -0.0027386036 -0.011744497 0.0025747805 -0.005607269 0.011819197 0.00033532674 -0.006449142
0.0019563816 -0.009541112 0.0008153886 0.0123316385 0.007874166 -0.008939698 0.009676355 0.0035938446
0.009767742 -0.011180023 -0.017022364 -0.0053578983 -0.013572631 0.013519965 0.0048330924 0.0058031157
0.002733334 -0.003825855 0.009976854 -0.018534688 -0.00350906 -0.0162313 -0.00018821555 -0.012736089
0.0009407458 -0.007731557 0.010164264 -0.016015604 -0.014827497 -0.011685728 0.018025624 0.00787925
0.015207065 -0.018217612 -0.022955118 -0.017152343 -0.014899668 0.0059966114 0.0058909887 0.018175403
-0.006700333 -0.011496373 0.010176773 -0.0058924663 0.010611494 -0.0063168253 0.009588043 -0.016521243
-0.011803678 0.0025103046 -0.00040081245 -0.011020436 0.004539858 0.009687274 -0.015874559 -0.014225858
0.01395832 -0.008150313 -0.008341078 -0.017843897 -0.010627072 0.004199831 0.00022105346 -0.009686279
0.00066051754 -0.014091108 -0.01949413 -0.011159441 -0.017437302 -0.014743773 0.017149417 0.008392345
0.008896772 -0.016644007 -0.011425208 -0.0034127398 0.0061328793 -0.015758246 -0.008285357 -0.012000109
-0.00080198236 -0.0076575503 -0.002817333 -0.015734745 -0.016573368 -0.010858668 -0.005955671 -0.016891224
0.013893632 -0.0038244056 0.016678449 0.007399977 -0.014103536 0.012620376 -0.003925758 -0.0038854198
-0.0111823715 -0.01626175 0.0054794676 -0.0013986294 0.010024667 -0.014043855 0.0140026035 -0.009569209
0.0006713138 0.003800099 0.009947952 0.01727467 0.019165019 -0.013095065 0.00653449 -0.0067673465
-0.003067459 -0.014134721 0.015833756 -0.016122773 0.0071781795 0.0068246624 0.0070882034 -0.010640837
0.017023847 0.0065248953 0.004921447 -0.013581401 0.010482544 -0.0018146288 -0.0089499615 0.01853867
0.008423257 -0.0061896527 -0.007577666 0.0011546195 0.014991126 0.0003363472 -0.00857754 -0.0039715786
-0.013128244 0.0043268017 0.013943229 -0.014157837 0.006145884 0.011335684 0.0073862066 -0.0027121215
0.009891385 0.009642881 0.0059685055 -0.004445902 -0.006160493 0.002895737 0.00046332716 -0.0038297249
0.011395407 0.016850913 4.4581598e-06 -0.0014666743 0.0020513427 0.00024592952 0.0046687997 0.009187758
-0.011308772 -0.002065709 0.016177822 0.008669481 0.0032503987 -0.0065305186 -0.010551015 -0.01539451
-0.008101468 0.0034603584 0.011320603 0.009881928 -0.014773974 -0.009068255 -0.00025413645 0.020575622
0.002716646 -0.0053900755 0.0064382083 -0.0076968977 -0.012886383 0.014122911 -0.0034620208 -0.00044043965
-0.019550633 0.009748077 0.013166973 0.0064333435 -0.013562009 -0.017620767 -0.014560384 0.01532912
0.009795818 0.01691377 0.011781609 0.0062588495 0.0023111627 -0.008800694 -0.012455068 -0.014291362
0.0071639055 -0.009191144 -0.0029914074 -0.010953209 -0.00466793 -0.014366877 -0.012854054 0.007258928
-0.008867402 0.006447357 -0.009432038 -0.014589556 -0.0053407243 -0.009076985 -0.0021500601 -0.014633804
00000000: 489d bf3b 4243 003c ec65 17bc 00d8 2d3c
00000010: 2eea 3cbc be19 fbb9 8ca5 33bc 1006 073c
00000020: 8f23 423c 472c 90bc b0fc 113c 6c6d 05bb
00000030: 4040 1a3c 32b3 c5b9 c16f dc3b 24f8 2ebb
00000040: 3124 573c d483 ad39 b233 1ebc 5045 5e3b
00000050: 6cb8 14bc 0511 55bb 1210 0abc 5bfa 3b3c
00000060: 9e1b 67bc 494a 01bc 1dec e2bb a100 60bc
00000070: 7fcb 05bb e9f3 bfbc ccd6 193c 7195 b8bc
00000080: 01da e53b 257a 33bb fe6b 40bc a6bd 283b
00000090: 2ebd b7bb 4ea5 413c cbce af39 5353 d3bb
000000a0: a336 003b 5352 1cbc cdbf 553a a40a 4a3c
000000b0: a502 013c d077 12bc 9389 1e3c b586 6b3b
000000c0: e108 203c 6a2c 37bc 7c72 8bbc 4f91 afbb
000000d0: be5f 5ebc d882 5d3c eb5e 9e3b 1028 be3b
000000e0: bc21 333b 32bb 7abb f575 233c 0fd6 97bc
000000f0: 42f8 65bb 81f7 84bc ba5b 45b9 07ab 50bc
00000100: 629c 763a 0059 fdbb 0388 263c 2833 83bc
00000110: 08ef 72bc 7f75 3fbc 79aa 933c f817 013c
00000120: 0e27 793c 1a3d 95bc 5f0c bcbc 1283 8cbc
00000130: bd1d 74bc 397f c43b 3209 c13b 95e4 943c
00000140: 788e dbbb 495b 3cbc 7bbc 263c 9715 c1bb
00000150: d5db 2d3c 5ffd cebb 2b17 1d3c 8f57 87bc
00000160: 3764 41bc ec83 243b 2324 d2b9 0f8f 34bc
00000170: 17c3 943b 5fb7 1e3c 5d0b 82bc 9313 69bc
00000180: 70b1 643c e488 05bc 04a9 08bc 5d2d 92bc
00000190: 2c1d 2ebc bc9e 893b 96ca 6739 33b3 1ebc
000001a0: 9526 2d3a 64de 66bc 27b2 9fbc 17d6 36bc
000001b0: acd8 8ebc de8f 71bc ef7c 8c3c 0c80 093c
000001c0: c4c3 113c 0359 88bc cc30 3bbc 46a8 5fbb
000001d0: 52f6 c83b 7017 81bc 4ebf 07bc 1b9c 44bc
000001e0: 203c 52ba 30ec fabb 01a3 38bb 27e6 80bc
000001f0: dfc4 87bc 8ee8 31bc ca27 c3bb 775f 8abc
00000200: 1ea2 633c e1a2 7abb 3ea1 883c 827b f23b
00000210: 8412 67bc b2c5 4e3c a5a3 80bb 87a2 7ebb
00000220: 4436 37bc 5d37 85bc 1b8d b33b 3752 b7ba
00000230: 803e 243c 3218 66bc 2d6b 653c 2cc8 1cbc
00000240: 1bfb 2f3a 150b 793b bcfc 223c 9c83 8d3c
00000250: f5ff 9c3c af8c 56bc 461f d63b 9ec0 ddbb
00000260: 6c07 49bb 5195 67bc cbb5 813c e813 84bc
00000270: ef36 eb3b 6ba1 df3b 2944 e83b e856 2ebc
00000280: 9875 8b3c cace d53b 1744 a13b 8684 5ebc
00000290: fabe 2b3c d7d8 edba dca2 12bc 69de 973c
000002a0: b301 0a3c 92d2 cabb 124e f8bb 9a56 973a
000002b0: 579d 753c c257 b039 cf88 0cbc 0424 82bb
000002c0: d917 57bc d8c7 8d3b 2472 643c 46f6 67bc
000002d0: 6963 c93b 4eb9 393c fe07 f23b d9bd 31bb
000002e0: 7a0f 223c 2dfd 1d3c 7493 c33b eeae 91bb
000002f0: f6dd c9bb 68c6 3d3b b8ea f239 1ffc 7abb
00000300: cdb3 3a3c ed0a 8a3c 4d97 9536 6c3d c0ba
00000310: d26f 063b 1af0 8039 bbfc 983b 4088 163c
00000320: 6d48 39bc d960 07bb 5a87 843c 700a 0e3c
00000330: a404 553b f6fd d5bb 2ade 2cbc 4139 7cbc
00000340: 05bc 04bc 2ec7 623b 0d7a 393c cfe7 213c
00000350: 8a0e 72bc 0593 14bc 9e3d 85b9 358e a83c
00000360: c209 323b 3b9f b0bb 9bf7 d23b 4236 fcbb
00000370: 6821 53bc c863 673c 12e3 62bb cfea e6b9
00000380: a628 a0bc 66b6 1f3c 4aba 573c ccce d23b
00000390: 3033 5ebc 6d59 90bc ad8e 6ebc fd26 7b3c
000003a0: a37e 203c bf8e 8a3c a607 413c 0917 cd3b
000003b0: e076 173b c930 10bc 5710 4cbc 5126 6abc
000003c0: 32bf ea3b 7496 16bc 7d0b 44bb 1775 33bc
000003d0: 6ff5 98bb 0d63 6bbc cf99 52bc 4ddc ed3b
000003e0: 9448 11bc 5a44 d33b d688 1abc 0809 6fbc
000003f0: 3e01 afbb a2b7 14bc 06e8 0cbb 9fc2 6fbc

bias f4 [32]
0.01948216 -0.0043480755 -0.0058248956 -0.00881429 0.0008176781 0.017500192 0.017178806 0.0020389569
-0.017864136 -0.00050403934 -0.007432651 -0.0023759 0.028768253 -0.015689084 0.014037718 -0.009710052
0.030575931 0.014518491 -0.0041738874 0.017849784 0.00085348805 0.016632894 0.01358122 -0.008644073
0.016140483 -0.016649812 0.025411632 0.01045305 0.018128995 0.0016685703 -0.008520503 0.009288495
00000000: 0d99 9f3c 4d7a 8ebb c4de bebb d069 10bc
00000010: 7359 563a 905c 8f3c 91ba 8c3c 05a0 053b
00000020: cf57 92bc 8221 04ba 988d f3bb fdb4 1bbb
00000030: 66ab eb3c 6586 80bc 75fe 653c e916 1fbc
00000040: 607a fa3c f7de 6d3c 1bc5 88bb b639 923c
00000050: 9dbc 5f3a b541 883c c483 5e3c df9f 0dbc
00000060: 0c39 843c 3065 88bc 0e2c d03c 4543 2b3c
00000070: 4283 943c eeb3 da3a 9499 0bbc c62e 183c

weight f4 [2, 32]
-0.16981742 0.0452069 -0.14398128 0.13085255 -0.042376507 0.13216293 -0.11587254 -0.2253221
0.12293189 -0.24768083 0.10680898 0.1994795 -0.20980425 0.024820248 0.16743234 0.14108066
-0.11698385 0.1738392 0.22470197 -0.16279775 0.033751838 0.16411129 -0.102587216 0.08787545
0.08510631 0.0023134907 -0.1753608 0.06417734 -0.11093959 -0.09763884 0.030958427 -0.18021388
0.18942747 -0.09748071 -0.15675645 -0.2053124 -0.039511323 0.18463127 -0.15844384 0.24433102
0.00035381055 0.20270947 0.042213466 -0.1668526 0.24623708 0.07129064 -0.16234381 0.0027907293
0.24445091 -0.20308508 -0.18504186 0.08185594 0.012494133 0.025413247 -0.1546414 -0.20452274
-0.09241336 -0.13736416 0.1953224 -0.12944497 -0.1115192 -0.04710201 0.10180505 0.104949825
00000000: 9ee4 2dbe df2a 393d d46f 13be 36fe 053e
00000010: fd92 2dbd b855 073e 954e edbd d6ba 66be
00000020: b7c3 fb3d 0ba0 7dbe abbe da3d 5b44 4c3e
00000030: edd6 56be d553 cb3c 6273 2b3e 7377 103e
00000040: 3b95 efbd e702 323e 4618 663e 74b4 26be
00000050: 5e3f 0a3d ca0c 283e 3f19 d2bd 0bf8 b33d
00000060: 384c ae3d ef9d 173b c891 33be 696f 833d
00000070: 4c34 e3bd dff6 c7bd 879c fd3c fd89 38be
00000080: 46f9 413e f7a3 c7bd c384 20be 6a3d 52be
00000090: a0d6 21bd fb0f 3d3e 1a3f 22be e931 7a3e
000000a0: a67f b939 1293 4f3e 07e8 2c3d 68db 2abe
000000b0: 9325 7c3e d400 923d 753d 26be abe4 363b
000000c0: 5751 7a3e 89f5 4fbe 9d7b 3dbe 16a4 a73d
000000d0: 31b4 4c3c 712f d03c 515a 1ebe 696e 51be
000000e0: 3743 bdbd 31a9 0cbe 9802 483e 398d 04be
000000f0: 2e64 e4bd 0aee 40bd 2b7f d03d efef d63d

bias f4 [2]
0.019990731 -0.08537547
00000000: 9ac3 a33c 56d9 aebd
