net.model (torch, 396191 bytes, 4 tensors)

weight f4 [32, 3072]
00000000: ac06 743c 3a1d 823c 8c5b 63bb f632 883c
00000010: a557 71bb f931 7c3b 07cb 0ebc 2bfa 363c
00000020: 6b58 843c 4d1e 46bc 1f55 8e3c fd95 a83b
00000030: c4c2 733c dd92 773b e97c 143c a990 07bb
00000040: e8aa 703c 21f2 563b d538 00bc 81c3 c33b
00000050: af4e f7bb a01e abba 74da d7bb 99c7 4a3c
00000060: c87a 64bc 17b9 f3bb d992 89bb a158 1fbc
00000070: 30c7 453b 5ed5 87bc 1fe7 8e3c 5ad0 71bc
00000080: 7c8a 7c3c 9933 7c3b 863b babb 3fe3 2d3c
00000090: d50c 333b 5c89 6f3c 2265 003b 8ab2 9dbb
000000a0: b45e bb3b 86c3 64bb fe58 143c 2ed9 8e3c
000000b0: a25c 3e3c de5c dbbb 176e 353c b6ec 6d3b
000000c0: 90a1 1d3c 4bcd 29bc 5a8d 8abc 3a1f b7bb
000000d0: 42e8 50bc 0fbf 803c 8434 b33b 1e90 f83b
000000e0: 0984 bb3b e55d fab9 d441 653c 9642 49bc
000000f0: 6e1f fe3a 8997 3abc f6bb ce3b b6eb b3bb
00000100: 6484 053c 44e4 11bb 2f92 803c 8c71 27bc
00000110: 048d 2dbc 7e74 36bc b846 843c f21f ed3b
00000120: 7100 953c 3d9f 67bc b300 8fbc 4612 62bc
00000130: 5e1e 47bc 195f f23b 91af d83b 5152 703c
00000140: e1a1 22bc 0c8c 4cbc 65ca 223c 90df e2bb
00000150: 81b9 3d3c 3dc9 6abb 4feb 273c 7123 5dbc
00000160: 7ab2 06bc 10d8 be3b d83c 7b3b 1697 7fbb
00000170: d98e 403c 61a1 5d3c 17ce 45bc 4923 09bc
00000180: 655d a73c f1ba 5cbb cd32 9ebb 0e54 84bc
00000190: de6b 26bc fb2e 663b 5917 41bb 4215 4cbc
000001a0: 1860 073a 08e0 47bc faa4 80bc 2931 28bc
000001b0: 07f2 85bc a669 43bc 66b8 923c 2f3e 253b
000001c0: 9524 963b 3751 92bc 60c2 55bc 7711 e2bb
000001d0: e900 413b 56f3 80bc 8514 05bc 42de 30bc
000001e0: e2a2 6e3a 5524 cabb 5732 04ba 580a 39bc
000001f0: e15f 38bc 7551 0bbc 95cc 7fbb c078 49bc
00000200: 046b a43c 0142 013a 82e9 953c 2810 023c
00000210: 1864 67bc 4f34 483c fa74 b6bb ff03 f1bb
00000220: 7a32 77bc b403 8fbc c039 bd3b 94d9 70bb
00000230: 6513 f33b 738e 6fbc 11e0 573c 274d 70bc
00000240: b118 87bb aada 4e3b 14a0 0b3c 3840 593c
00000250: 3877 803c d079 69bc decc 903b ab1f fdbb
00000260: 540a 98ba df98 4cbc 9dd6 8c3c 9e9a 49bc
00000270: bb99 393c 974e 0a3c e030 073c 7266 ddbb
00000280: 0e09 a83c 3635 f83b fdbc a03b 8aed 65bc
00000290: af6d 0c3c 7152 4fbb a533 16bc cc08 723c
000002a0: 393c 803b d6a7 1fbc d009 16bc c985 a8ba
000002b0: bc1c 2e3c 75f8 68bb 8dfd 26bc 9715 e2bb
000002c0: 3548 6bbc fff6 cc3b fb72 5f3c 86d6 90bc
000002d0: ef18 663b 805b 1b3c 8691 953b a91c a3bb
000002e0: 3f5a 333c afd3 383c d1df ff3b 21bb 11bb
000002f0: d03f 58bb 2c29 433b 41e9 eeba cbca 21bb
00000300: 0513 7d3c 3d06 9a3c e386 eb39 a1d2 37bb
00000310: c0d8 fb39 0730 f9ba 120b 5c3b f4d6 943b
00000320: e37c 89bc eea9 ebbb de01 6f3c 2d26 e03b
00000330: 0a4a 77ba 4ac0 2bbc 86dc 31bc cef8 87bc
00000340: ab8c e8bb 143d be3b d8ff 353c 63d1 f53b
00000350: 6907 89bc a05b 35bc 2acf 03bb 8218 983c
00000360: 1560 803b 3bac 62bb 3026 013c d77c d1bb
00000370: f23b 2fbc a707 5e3c 5e91 ecbb 0df5 20ba
00000380: fd58 59bc 66ab 813c 73ca 803c 716b fc3b
00000390: f556 44bc 1ba8 8ebc 193d 69bc 4324 663c
000003a0: 1df2 143c a876 823c bf8d 283c 7aa6 b03b
000003b0: 32d5 11ba 403f 64bc ebbc 73bc ff77 89bc
000003c0: 6e8d ce3b 1477 16bc 518f 2ebb 86ee 1ebc
000003d0: ecc0 48bb 546e 4fbc 543b 3cbc 051e d43b
000003e0: 7fe5 9bbb 423b 3e3c 1c73 b3bb 87e5 4ebc
000003f0: d916 0abb bfd4 0bbc b383 9abb b209 6abc
0.014894169 0.015883077 -0.0034692017 0.016625863 -0.0036825922 0.0038481934 -0.008715398 0.011168043
0.016155442 -0.012092185 0.017374573 0.005144833 0.014877979 0.0037776746 0.009062984 -0.002068559
0.014689185 0.0032798129 -0.00782605 0.0059742336 -0.0075472216 -0.0013055392 -0.006587321 0.012376689
-0.013945289 -0.007437836 -0.004198414 -0.009725721 0.003017854 -0.016581234 0.017444192 -0.014759148
0.015413877 0.0038482903 -0.0056833653 0.010613262 0.002732088 0.014620151 0.001959153 -0.0048125433
0.0057180766 -0.003490658 0.0090544205 0.017437544 0.011618765 -0.0066944202 0.011073611 0.003630442
0.009621039 -0.010363887 -0.016913105 -0.0055884393 -0.012750687 0.015716104 0.005468907 0.0075855395
0.005722527 -0.00047753673 0.013992745 -0.012283942 0.0019388029 -0.011388668 0.006309028 -0.0054907454
0.00814924 -0.00222613 0.015694706 -0.010219943 -0.010592703 -0.011136172 0.016147003 0.007236474
0.018188687 -0.014137086 -0.017456388 -0.013798302 -0.012153236 0.0073965904 0.006612726 0.014668063
-0.00992629 -0.012484562 0.00993595 -0.0069236234 0.011579872 -0.0035825514 0.010248973 -0.013497219
-0.008221263 0.0058240965 0.0038335826 -0.0038999966 0.011752808 0.013527245 -0.012073061 -0.008370229
0.020430276 -0.0033680762 -0.0048278333 -0.016153362 -0.0101575535 0.0035123217 -0.002946338 -0.01245624
0.00051641604 -0.012199409 -0.015703667 -0.010265627 -0.01635076 -0.011927044 0.017910194 0.0025214066
0.0045819976 -0.017860992 -0.013046831 -0.0068990546 0.0029450005 -0.015741032 -0.008122568 -0.010795178
0.0009103251 -0.006168882 -0.00050429016 -0.01129397 -0.011253328 -0.008503308 -0.0039031853 -0.012296855
0.02007056 0.0004930795 0.018299822 0.007938422 -0.014122985 0.012219503 -0.005568144 -0.0073552127
-0.015087718 -0.01745782 0.0057747066 -0.003675078 0.0074180835 -0.014621365 0.01317598 -0.014666832
-0.0041228165 0.003156344 0.008522052 0.01325994 0.015681848 -0.014250234 0.0044189533 -0.0077247224
-0.0011599758 -0.012487619 0.01719218 -0.01230493 0.011328156 0.008441589 0.008251399 -0.006756597
0.02051213 0.0075747026 0.0049053417 -0.0140336845 0.0085710725 -0.0031634832 -0.009167586 0.014772605
0.003913429 -0.009744605 -0.009157613 -0.0012857254 0.010626968 -0.0035548483 -0.010192287 -0.0068995464
-0.014360477 0.00625503 0.013638253 -0.017680418 0.0035110076 0.0094822645 0.004564467 -0.004977782
0.010946809 0.011280938 0.0078086634 -0.0022236782 -0.003299702 0.002977918 -0.0018227474 -0.0024687524
0.015446429 0.018801803 0.0004492319 -0.0028049129 0.00048035942 -0.0019011506 0.0033575934 0.004542226
-0.016783183 -0.007191888 0.0145878475 0.0068404884 -0.0009433335 -0.010482857 -0.0108558 -0.016598132
-0.007096847 0.005805621 0.011108361 0.0075017675 -0.016727166 -0.011069208 -0.0020112493 0.018566374
0.003917704 -0.003458752 0.00788264 -0.006393056 -0.010695444 0.013551629 -0.0072194776 -0.0006140031
-0.013265845 0.0158288 0.015721535 0.0077032377 -0.011983623 -0.017414143 -0.014235758 0.014046731
0.009090927 0.01592572 0.010287701 0.0053909393 -0.00055630796 -0.013931096 -0.0148765845 -0.016780851
0.006303481 -0.009183664 -0.0026635716 -0.009700423 -0.0030632569 -0.012660582 -0.011488754 0.006473305
-0.0047575827 0.011610808 -0.0054763686 -0.012627966 -0.0021070747 -0.008534609 -0.004715407 -0.014284538

bias f4 [32]
00000000: ec1e 8a3c c17c 79bb 2dba b8bb 28d8 d0bb
00000010: cd23 333a a0c5 8d3c 6841 8a3c 468c 6bbb
00000020: db52 91bc 6f2e 92ba bde1 f9bb 49e1 2ebc
00000030: d183 cc3c c118 83bc 2156 663c 2e1b 15bc
00000040: 20cc c23c f958 2b3c 9a78 04bc 5f10 953c
00000050: 9234 2a3a 9d30 7c3c 7970 583c 47a2 64bc
00000060: ca62 823c e106 82bc f7e1 9d3c ac85 3d3c
00000070: 21a8 953c 7e41 cc3a 84e8 13bc b6fa a73b
0.016860448 -0.0038068744 -0.0056374283 -0.006373424 0.0006833643 0.017306149 0.016876891 -0.0035941764
-0.017739704 -0.0011152754 -0.007625787 -0.010673829 0.024965199 -0.016003015 0.014058621 -0.009100718
0.023778975 0.010458224 -0.008085394 0.018196283 0.0006492819 0.01539245 0.013210409 -0.013954706
0.015916247 -0.01587242 0.019272787 0.011567514 0.018268647 0.0015583483 -0.009027604 0.0051263226

weight f4 [2, 32]
00000000: 1286 eebd fa79 143d 806c 09be ed50 bb3d
00000010: ec26 31bd c737 113e 482a 00be 4eaa 16be
00000020: 3280 d63d 92ad 3ebe ef38 d13d 8d3a 223e
00000030: 94fc 0fbe 24db 1a3d 8db5 e03d 8e96 ee3d
00000040: a3f0 8abd e4e2 e43d 2ef1 2a3e 07f0 09be
00000050: a28c 033d 8da0 133e 9e71 ddbd 8eb2 233d
00000060: 8ae8 5e3d 6dbe 96bc 0d5e f6bd 915c 193d
00000070: 5e46 ebbd 79e9 b8bd 65ec 323d f929 12be
00000080: ad57 0b3e 844b b5bd 1888 2abe 9ee7 29be
00000090: b042 1ebd ed2d 333e 27bc 18be 6121 2a3e
000000a0: 1ff4 973c 97a0 103e 83f3 3f3d 98d1 00be
000000b0: 384b 353e 73d0 6e3d ae49 d6bd fb3d e03c
000000c0: 0aff 473e 1564 10be 8754 02be 4c36 5c3d
000000d0: 3f7f 673c 9ac8 393d 25ae 18be 135f 20be
000000e0: 86d6 7cbd d6e5 eebd d19f 0f3e 6459 d2bd
000000f0: 1c52 dcbd ef08 5fbd 1270 b63d ed2f 8a3d
-0.11646666 0.03624914 -0.13420296 0.09146295 -0.04325001 0.14181434 -0.12516129 -0.14713404
0.1047367 -0.186209 0.10215937 0.15842648 -0.14061195 0.037806645 0.10972128 0.1164981
-0.06784179 0.111760885 0.16693565 -0.1347047 0.03211654 0.14416714 -0.108126864 0.039965205
0.054420985 -0.018401349 -0.120296575 0.037441794 -0.11488031 -0.090289064 0.043682475 -0.14273824
0.13607664 -0.08852294 -0.16653478 -0.16592261 -0.038637817 0.17497988 -0.14915524 0.16614296
0.018549023 0.1412376 0.04686309 -0.12579954 0.17704475 0.05830426 -0.10463272 0.027373305
0.19530883 -0.14100678 -0.12727557 0.05376272 0.014129459 0.045357324 -0.14910181 -0.15661268
-0.061728023 -0.116649315 0.14025809 -0.10270956 -0.107578486 -0.05445188 0.089080945 0.06747422

bias f4 [2]
00000000: 7892 733c b55a a4bd
0.014866464 -0.080251135
